program(1.0)
[buildInfo = dict<tensor<string, []>, tensor<string, []>>({{"coremlc-component-MIL", "3500.14.1"}, {"coremlc-version", "3500.32.1"}})]
{
    func main<ios17>(tensor<fp32, [1, 128, 1501]> mel, tensor<int32, [1]> mel_length) {
            tensor<int32, []> var_30 = const()[name = tensor<string, []>("op_30"), val = tensor<int32, []>(-1)];
            tensor<int32, [3]> x_1_perm_0 = const()[name = tensor<string, []>("x_1_perm_0"), val = tensor<int32, [3]>([0, 2, 1])];
            tensor<string, []> mel_to_fp16_dtype_0 = const()[name = tensor<string, []>("mel_to_fp16_dtype_0"), val = tensor<string, []>("fp16")];
            tensor<string, []> var_86_to_fp16_dtype_0 = const()[name = tensor<string, []>("op_86_to_fp16_dtype_0"), val = tensor<string, []>("fp16")];
            tensor<fp16, []> var_87_promoted_to_fp16 = const()[name = tensor<string, []>("op_87_promoted_to_fp16"), val = tensor<fp16, []>(-0x1p+0)];
            tensor<fp16, [1]> mel_length_to_fp16 = cast(dtype = var_86_to_fp16_dtype_0, x = mel_length)[name = tensor<string, []>("cast_3")];
            tensor<fp16, [1]> var_88_cast_fp16 = add(x = mel_length_to_fp16, y = var_87_promoted_to_fp16)[name = tensor<string, []>("op_88_cast_fp16")];
            tensor<fp16, []> _inversed_90_y_0_to_fp16 = const()[name = tensor<string, []>("_inversed_90_y_0_to_fp16"), val = tensor<fp16, []>(0x1p-1)];
            tensor<fp16, [1]> _inversed_90_cast_fp16 = mul(x = var_88_cast_fp16, y = _inversed_90_y_0_to_fp16)[name = tensor<string, []>("_inversed_90_cast_fp16")];
            tensor<fp16, []> var_91_to_fp16 = const()[name = tensor<string, []>("op_91_to_fp16"), val = tensor<fp16, []>(0x1p+0)];
            tensor<fp16, [1]> lengths_1_cast_fp16 = add(x = _inversed_90_cast_fp16, y = var_91_to_fp16)[name = tensor<string, []>("lengths_1_cast_fp16")];
            tensor<fp16, [1]> lengths_3_cast_fp16 = floor(x = lengths_1_cast_fp16)[name = tensor<string, []>("lengths_3_cast_fp16")];
            tensor<fp16, []> var_95_promoted_to_fp16 = const()[name = tensor<string, []>("op_95_promoted_to_fp16"), val = tensor<fp16, []>(-0x1p+0)];
            tensor<fp16, [1]> var_96_cast_fp16 = add(x = lengths_3_cast_fp16, y = var_95_promoted_to_fp16)[name = tensor<string, []>("op_96_cast_fp16")];
            tensor<fp16, []> _inversed_98_y_0_to_fp16 = const()[name = tensor<string, []>("_inversed_98_y_0_to_fp16"), val = tensor<fp16, []>(0x1p-1)];
            tensor<fp16, [1]> _inversed_98_cast_fp16 = mul(x = var_96_cast_fp16, y = _inversed_98_y_0_to_fp16)[name = tensor<string, []>("_inversed_98_cast_fp16")];
            tensor<fp16, []> var_99_to_fp16 = const()[name = tensor<string, []>("op_99_to_fp16"), val = tensor<fp16, []>(0x1p+0)];
            tensor<fp16, [1]> lengths_7_cast_fp16 = add(x = _inversed_98_cast_fp16, y = var_99_to_fp16)[name = tensor<string, []>("lengths_7_cast_fp16")];
            tensor<fp16, [1]> lengths_9_cast_fp16 = floor(x = lengths_7_cast_fp16)[name = tensor<string, []>("lengths_9_cast_fp16")];
            tensor<fp16, []> var_103_promoted_to_fp16 = const()[name = tensor<string, []>("op_103_promoted_to_fp16"), val = tensor<fp16, []>(-0x1p+0)];
            tensor<fp16, [1]> var_104_cast_fp16 = add(x = lengths_9_cast_fp16, y = var_103_promoted_to_fp16)[name = tensor<string, []>("op_104_cast_fp16")];
            tensor<fp16, []> _inversed_106_y_0_to_fp16 = const()[name = tensor<string, []>("_inversed_106_y_0_to_fp16"), val = tensor<fp16, []>(0x1p-1)];
            tensor<fp16, [1]> _inversed_106_cast_fp16 = mul(x = var_104_cast_fp16, y = _inversed_106_y_0_to_fp16)[name = tensor<string, []>("_inversed_106_cast_fp16")];
            tensor<fp16, []> var_107_to_fp16 = const()[name = tensor<string, []>("op_107_to_fp16"), val = tensor<fp16, []>(0x1p+0)];
            tensor<fp16, [1]> lengths_13_cast_fp16 = add(x = _inversed_106_cast_fp16, y = var_107_to_fp16)[name = tensor<string, []>("lengths_13_cast_fp16")];
            tensor<fp16, [1]> lengths_cast_fp16 = floor(x = lengths_13_cast_fp16)[name = tensor<string, []>("lengths_cast_fp16")];
            tensor<int32, [1]> input_1_axes_0 = const()[name = tensor<string, []>("input_1_axes_0"), val = tensor<int32, [1]>([1])];
            tensor<fp16, [1, 128, 1501]> mel_to_fp16 = cast(dtype = mel_to_fp16_dtype_0, x = mel)[name = tensor<string, []>("cast_2")];
            tensor<fp16, [1, 1501, 128]> x_1_cast_fp16 = transpose(perm = x_1_perm_0, x = mel_to_fp16)[name = tensor<string, []>("transpose_315")];
            tensor<fp16, [1, 1, 1501, 128]> input_1_cast_fp16 = expand_dims(axes = input_1_axes_0, x = x_1_cast_fp16)[name = tensor<string, []>("input_1_cast_fp16")];
            tensor<string, []> input_3_pad_type_0 = const()[name = tensor<string, []>("input_3_pad_type_0"), val = tensor<string, []>("custom")];
            tensor<int32, [4]> input_3_pad_0 = const()[name = tensor<string, []>("input_3_pad_0"), val = tensor<int32, [4]>([1, 1, 1, 1])];
            tensor<int32, [2]> input_3_strides_0 = const()[name = tensor<string, []>("input_3_strides_0"), val = tensor<int32, [2]>([2, 2])];
            tensor<int32, [2]> input_3_dilations_0 = const()[name = tensor<string, []>("input_3_dilations_0"), val = tensor<int32, [2]>([1, 1])];
            tensor<int32, []> input_3_groups_0 = const()[name = tensor<string, []>("input_3_groups_0"), val = tensor<int32, []>(1)];
            tensor<fp16, [256, 1, 3, 3]> module_pre_encode_conv_0_weight_to_fp16_palettized = constexpr_lut_to_dense()[indices = tensor<uint8, [1728]>(BLOBFILE(path = tensor<string, []>("@model_path/weights/weight.bin"), offset = tensor<uint64, []>(64))), lut = tensor<fp16, [64]>(BLOBFILE(path = tensor<string, []>("@model_path/weights/weight.bin"), offset = tensor<uint64, []>(1856))), name = tensor<string, []>("module_pre_encode_conv_0_weight_to_fp16_palettized"), shape = tensor<uint32, [4]>([256, 1, 3, 3])];
            tensor<fp16, [256]> module_pre_encode_conv_0_bias_to_fp16 = const()[name = tensor<string, []>("module_pre_encode_conv_0_bias_to_fp16"), val = tensor<fp16, [256]>(BLOBFILE(path = tensor<string, []>("@model_path/weights/weight.bin"), offset = tensor<uint64, []>(2048)))];
            tensor<fp16, [1, 256, 751, 64]> input_3_cast_fp16 = conv(bias = module_pre_encode_conv_0_bias_to_fp16, dilations = input_3_dilations_0, groups = input_3_groups_0, pad = input_3_pad_0, pad_type = input_3_pad_type_0, strides = input_3_strides_0, weight = module_pre_encode_conv_0_weight_to_fp16_palettized, x = input_1_cast_fp16)[name = tensor<string, []>("input_3_cast_fp16")];
            tensor<fp16, [1, 256, 751, 64]> input_5_cast_fp16 = relu(x = input_3_cast_fp16)[name = tensor<string, []>("input_5_cast_fp16")];
            tensor<string, []> input_7_pad_type_0 = const()[name = tensor<string, []>("input_7_pad_type_0"), val = tensor<string, []>("custom")];
            tensor<int32, [4]> input_7_pad_0 = const()[name = tensor<string, []>("input_7_pad_0"), val = tensor<int32, [4]>([1, 1, 1, 1])];
            tensor<int32, [2]> input_7_strides_0 = const()[name = tensor<string, []>("input_7_strides_0"), val = tensor<int32, [2]>([2, 2])];
            tensor<int32, []> input_7_groups_0 = const()[name = tensor<string, []>("input_7_groups_0"), val = tensor<int32, []>(256)];
            tensor<int32, [2]> input_7_dilations_0 = const()[name = tensor<string, []>("input_7_dilations_0"), val = tensor<int32, [2]>([1, 1])];
            tensor<fp16, [256, 1, 3, 3]> module_pre_encode_conv_2_weight_to_fp16_palettized = constexpr_lut_to_dense()[indices = tensor<uint8, [1728]>(BLOBFILE(path = tensor<string, []>("@model_path/weights/weight.bin"), offset = tensor<uint64, []>(2624))), lut = tensor<fp16, [64]>(BLOBFILE(path = tensor<string, []>("@model_path/weights/weight.bin"), offset = tensor<uint64, []>(4416))), name = tensor<string, []>("module_pre_encode_conv_2_weight_to_fp16_palettized"), shape = tensor<uint32, [4]>([256, 1, 3, 3])];
            tensor<fp16, [256]> module_pre_encode_conv_2_bias_to_fp16 = const()[name = tensor<string, []>("module_pre_encode_conv_2_bias_to_fp16"), val = tensor<fp16, [256]>(BLOBFILE(path = tensor<string, []>("@model_path/weights/weight.bin"), offset = tensor<uint64, []>(4608)))];
            tensor<fp16, [1, 256, 376, 32]> input_7_cast_fp16 = conv(bias = module_pre_encode_conv_2_bias_to_fp16, dilations = input_7_dilations_0, groups = input_7_groups_0, pad = input_7_pad_0, pad_type = input_7_pad_type_0, strides = input_7_strides_0, weight = module_pre_encode_conv_2_weight_to_fp16_palettized, x = input_5_cast_fp16)[name = tensor<string, []>("input_7_cast_fp16")];
            tensor<string, []> input_9_pad_type_0 = const()[name = tensor<string, []>("input_9_pad_type_0"), val = tensor<string, []>("valid")];
            tensor<int32, [2]> input_9_strides_0 = const()[name = tensor<string, []>("input_9_strides_0"), val = tensor<int32, [2]>([1, 1])];
            tensor<int32, [4]> input_9_pad_0 = const()[name = tensor<string, []>("input_9_pad_0"), val = tensor<int32, [4]>([0, 0, 0, 0])];
            tensor<int32, [2]> input_9_dilations_0 = const()[name = tensor<string, []>("input_9_dilations_0"), val = tensor<int32, [2]>([1, 1])];
            tensor<int32, []> input_9_groups_0 = const()[name = tensor<string, []>("input_9_groups_0"), val = tensor<int32, []>(1)];
            tensor<fp16, [256, 256, 1, 1]> module_pre_encode_conv_3_weight_to_fp16_palettized = constexpr_lut_to_dense()[indices = tensor<uint8, [49152]>(BLOBFILE(path = tensor<string, []>("@model_path/weights/weight.bin"), offset = tensor<uint64, []>(5184))), lut = tensor<fp16, [64]>(BLOBFILE(path = tensor<string, []>("@model_path/weights/weight.bin"), offset = tensor<uint64, []>(54400))), name = tensor<string, []>("module_pre_encode_conv_3_weight_to_fp16_palettized"), shape = tensor<uint32, [4]>([256, 256, 1, 1])];
            tensor<fp16, [256]> module_pre_encode_conv_3_bias_to_fp16 = const()[name = tensor<string, []>("module_pre_encode_conv_3_bias_to_fp16"), val = tensor<fp16, [256]>(BLOBFILE(path = tensor<string, []>("@model_path/weights/weight.bin"), offset = tensor<uint64, []>(54592)))];
            tensor<fp16, [1, 256, 376, 32]> input_9_cast_fp16 = conv(bias = module_pre_encode_conv_3_bias_to_fp16, dilations = input_9_dilations_0, groups = input_9_groups_0, pad = input_9_pad_0, pad_type = input_9_pad_type_0, strides = input_9_strides_0, weight = module_pre_encode_conv_3_weight_to_fp16_palettized, x = input_7_cast_fp16)[name = tensor<string, []>("input_9_cast_fp16")];
            tensor<fp16, [1, 256, 376, 32]> input_11_cast_fp16 = relu(x = input_9_cast_fp16)[name = tensor<string, []>("input_11_cast_fp16")];
            tensor<string, []> input_13_pad_type_0 = const()[name = tensor<string, []>("input_13_pad_type_0"), val = tensor<string, []>("custom")];
            tensor<int32, [4]> input_13_pad_0 = const()[name = tensor<string, []>("input_13_pad_0"), val = tensor<int32, [4]>([1, 1, 1, 1])];
            tensor<int32, [2]> input_13_strides_0 = const()[name = tensor<string, []>("input_13_strides_0"), val = tensor<int32, [2]>([2, 2])];
            tensor<int32, []> input_13_groups_0 = const()[name = tensor<string, []>("input_13_groups_0"), val = tensor<int32, []>(256)];
            tensor<int32, [2]> input_13_dilations_0 = const()[name = tensor<string, []>("input_13_dilations_0"), val = tensor<int32, [2]>([1, 1])];
            tensor<fp16, [256, 1, 3, 3]> module_pre_encode_conv_5_weight_to_fp16_palettized = constexpr_lut_to_dense()[indices = tensor<uint8, [1728]>(BLOBFILE(path = tensor<string, []>("@model_path/weights/weight.bin"), offset = tensor<uint64, []>(55168))), lut = tensor<fp16, [64]>(BLOBFILE(path = tensor<string, []>("@model_path/weights/weight.bin"), offset = tensor<uint64, []>(56960))), name = tensor<string, []>("module_pre_encode_conv_5_weight_to_fp16_palettized"), shape = tensor<uint32, [4]>([256, 1, 3, 3])];
            tensor<fp16, [256]> module_pre_encode_conv_5_bias_to_fp16 = const()[name = tensor<string, []>("module_pre_encode_conv_5_bias_to_fp16"), val = tensor<fp16, [256]>(BLOBFILE(path = tensor<string, []>("@model_path/weights/weight.bin"), offset = tensor<uint64, []>(57152)))];
            tensor<fp16, [1, 256, 188, 16]> input_13_cast_fp16 = conv(bias = module_pre_encode_conv_5_bias_to_fp16, dilations = input_13_dilations_0, groups = input_13_groups_0, pad = input_13_pad_0, pad_type = input_13_pad_type_0, strides = input_13_strides_0, weight = module_pre_encode_conv_5_weight_to_fp16_palettized, x = input_11_cast_fp16)[name = tensor<string, []>("input_13_cast_fp16")];
            tensor<string, []> input_15_pad_type_0 = const()[name = tensor<string, []>("input_15_pad_type_0"), val = tensor<string, []>("valid")];
            tensor<int32, [2]> input_15_strides_0 = const()[name = tensor<string, []>("input_15_strides_0"), val = tensor<int32, [2]>([1, 1])];
            tensor<int32, [4]> input_15_pad_0 = const()[name = tensor<string, []>("input_15_pad_0"), val = tensor<int32, [4]>([0, 0, 0, 0])];
            tensor<int32, [2]> input_15_dilations_0 = const()[name = tensor<string, []>("input_15_dilations_0"), val = tensor<int32, [2]>([1, 1])];
            tensor<int32, []> input_15_groups_0 = const()[name = tensor<string, []>("input_15_groups_0"), val = tensor<int32, []>(1)];
            tensor<fp16, [256, 256, 1, 1]> module_pre_encode_conv_6_weight_to_fp16_palettized = constexpr_lut_to_dense()[indices = tensor<uint8, [49152]>(BLOBFILE(path = tensor<string, []>("@model_path/weights/weight.bin"), offset = tensor<uint64, []>(57728))), lut = tensor<fp16, [64]>(BLOBFILE(path = tensor<string, []>("@model_path/weights/weight.bin"), offset = tensor<uint64, []>(106944))), name = tensor<string, []>("module_pre_encode_conv_6_weight_to_fp16_palettized"), shape = tensor<uint32, [4]>([256, 256, 1, 1])];
            tensor<fp16, [256]> module_pre_encode_conv_6_bias_to_fp16 = const()[name = tensor<string, []>("module_pre_encode_conv_6_bias_to_fp16"), val = tensor<fp16, [256]>(BLOBFILE(path = tensor<string, []>("@model_path/weights/weight.bin"), offset = tensor<uint64, []>(107136)))];
            tensor<fp16, [1, 256, 188, 16]> input_15_cast_fp16 = conv(bias = module_pre_encode_conv_6_bias_to_fp16, dilations = input_15_dilations_0, groups = input_15_groups_0, pad = input_15_pad_0, pad_type = input_15_pad_type_0, strides = input_15_strides_0, weight = module_pre_encode_conv_6_weight_to_fp16_palettized, x = input_13_cast_fp16)[name = tensor<string, []>("input_15_cast_fp16")];
            tensor<fp16, [1, 256, 188, 16]> x_3_cast_fp16 = relu(x = input_15_cast_fp16)[name = tensor<string, []>("x_3_cast_fp16")];
            tensor<int32, [4]> var_157_perm_0 = const()[name = tensor<string, []>("op_157_perm_0"), val = tensor<int32, [4]>([0, 2, 1, 3])];
            tensor<int32, [3]> var_158 = const()[name = tensor<string, []>("op_158"), val = tensor<int32, [3]>([1, 188, -1])];
            tensor<fp16, [1, 188, 256, 16]> var_157_cast_fp16 = transpose(perm = var_157_perm_0, x = x_3_cast_fp16)[name = tensor<string, []>("transpose_314")];
            tensor<fp16, [1, 188, 4096]> input_17_cast_fp16 = reshape(shape = var_158, x = var_157_cast_fp16)[name = tensor<string, []>("input_17_cast_fp16")];
            tensor<fp16, [1024, 4096]> module_pre_encode_out_weight_to_fp16_palettized = constexpr_lut_to_dense()[indices = tensor<uint8, [3145728]>(BLOBFILE(path = tensor<string, []>("@model_path/weights/weight.bin"), offset = tensor<uint64, []>(107712))), lut = tensor<fp16, [64]>(BLOBFILE(path = tensor<string, []>("@model_path/weights/weight.bin"), offset = tensor<uint64, []>(3253504))), name = tensor<string, []>("module_pre_encode_out_weight_to_fp16_palettized"), shape = tensor<uint32, [2]>([1024, 4096])];
            tensor<fp16, [1024]> module_pre_encode_out_bias_to_fp16 = const()[name = tensor<string, []>("module_pre_encode_out_bias_to_fp16"), val = tensor<fp16, [1024]>(BLOBFILE(path = tensor<string, []>("@model_path/weights/weight.bin"), offset = tensor<uint64, []>(3253696)))];
            tensor<fp16, [1, 188, 1024]> linear_0_cast_fp16 = linear(bias = module_pre_encode_out_bias_to_fp16, weight = module_pre_encode_out_weight_to_fp16_palettized, x = input_17_cast_fp16)[name = tensor<string, []>("linear_0_cast_fp16")];
            tensor<string, []> padding_length_dtype_0 = const()[name = tensor<string, []>("padding_length_dtype_0"), val = tensor<string, []>("int32")];
            tensor<int32, [1, 188]> expand_dims_0 = const()[name = tensor<string, []>("expand_dims_0"), val = tensor<int32, [1, 188]>([[0, 1, 2, 3, 4, 5, 6, 7, 8, 9, 10, 11, 12, 13, 14, 15, 16, 17, 18, 19, 20, 21, 22, 23, 24, 25, 26, 27, 28, 29, 30, 31, 32, 33, 34, 35, 36, 37, 38, 39, 40, 41, 42, 43, 44, 45, 46, 47, 48, 49, 50, 51, 52, 53, 54, 55, 56, 57, 58, 59, 60, 61, 62, 63, 64, 65, 66, 67, 68, 69, 70, 71, 72, 73, 74, 75, 76, 77, 78, 79, 80, 81, 82, 83, 84, 85, 86, 87, 88, 89, 90, 91, 92, 93, 94, 95, 96, 97, 98, 99, 100, 101, 102, 103, 104, 105, 106, 107, 108, 109, 110, 111, 112, 113, 114, 115, 116, 117, 118, 119, 120, 121, 122, 123, 124, 125, 126, 127, 128, 129, 130, 131, 132, 133, 134, 135, 136, 137, 138, 139, 140, 141, 142, 143, 144, 145, 146, 147, 148, 149, 150, 151, 152, 153, 154, 155, 156, 157, 158, 159, 160, 161, 162, 163, 164, 165, 166, 167, 168, 169, 170, 171, 172, 173, 174, 175, 176, 177, 178, 179, 180, 181, 182, 183, 184, 185, 186, 187]])];
            tensor<int32, [1]> var_196_axes_0 = const()[name = tensor<string, []>("op_196_axes_0"), val = tensor<int32, [1]>([-1])];
            tensor<int32, [1]> encoder_length = cast(dtype = padding_length_dtype_0, x = lengths_cast_fp16)[name = tensor<string, []>("cast_1")];
            tensor<int32, [1, 1]> var_196 = expand_dims(axes = var_196_axes_0, x = encoder_length)[name = tensor<string, []>("op_196")];
            tensor<bool, [1, 188]> pad_mask_1 = less(x = expand_dims_0, y = var_196)[name = tensor<string, []>("pad_mask_1")];
            tensor<int32, [1]> var_198_axes_0 = const()[name = tensor<string, []>("op_198_axes_0"), val = tensor<int32, [1]>([1])];
            tensor<bool, [1, 1, 188]> var_198 = expand_dims(axes = var_198_axes_0, x = pad_mask_1)[name = tensor<string, []>("op_198")];
            tensor<int32, [3]> var_199 = const()[name = tensor<string, []>("op_199"), val = tensor<int32, [3]>([1, 188, 1])];
            tensor<bool, [1, 188, 188]> pad_mask_for_att_mask_1 = tile(reps = var_199, x = var_198)[name = tensor<string, []>("pad_mask_for_att_mask_1")];
            tensor<int32, [3]> var_201_perm_0 = const()[name = tensor<string, []>("op_201_perm_0"), val = tensor<int32, [3]>([0, 2, 1])];
            tensor<bool, [1, 188, 188]> var_201 = transpose(perm = var_201_perm_0, x = pad_mask_for_att_mask_1)[name = tensor<string, []>("transpose_313")];
            tensor<bool, [1, 188, 188]> pad_mask_for_att_mask = logical_and(x = pad_mask_for_att_mask_1, y = var_201)[name = tensor<string, []>("pad_mask_for_att_mask")];
            tensor<bool, [1, 188, 188]> const_7 = const()[name = tensor<string, []>("const_7"), val = tensor<bool, [1, 188, 188]>([[[true, true, true, true, true, true, true, true, true, true, true, true, true, true, true, true, true, true, true, true, true, true, true, true, true, true, true, true, true, true, true, true, true, true, true, true, true, true, true, true, true, true, true, true, true, true, true, true, true, true, true, true, true, true, true, true, true, true, true, true, true, true, true, true, true, true, true, true, true, true, true, true, true, true, true, true, true, true, true, true, true, true, true, true, true, true, true, true, true, true, true, true, true, true, true, true, true, true, true, true, true, true, true, true, true, true, true, true, true, true, true, true, true, true, true, true, true, true, true, true, true, true, true, true, true, true, true, true, true, true, true, true, true, true, true, true, true, true, true, true, true, true, true, true, true, true, true, true, true, true, true, true, true, true, true, true, true, true, true, true, true, true, true, true, true, true, true, true, true, true, true, true, true, true, true, true, true, true, true, true, true, true, true, true, true, true, true, true], [true, true, true, true, true, true, true, true, true, true, true, true, true, true, true, true, true, true, true, true, true, true, true, true, true, true, true, true, true, true, true, true, true, true, true, true, true, true, true, true, true, true, true, true, true, true, true, true, true, true, true, true, true, true, true, true, true, true, true, true, true, true, true, true, true, true, true, true, true, true, true, true, true, true, true, true, true, true, true, true, true, true, true, true, true, true, true, true, true, true, true, true, true, true, true, true, true, true, true, true, true, true, true, true, true, true, true, true, true, true, true, true, true, true, true, true, true, true, true, true, true, true, true, true, true, true, true, true, true, true, true, true, true, true, true, true, true, true, true, true, true, true, true, true, true, true, true, true, true, true, true, true, true, true, true, true, true, true, true, true, true, true, true, true, true, true, true, true, true, true, true, true, true, true, true, true, true, true, true, true, true, true, true, true, true, true, true, true], [true, true, true, true, true, true, true, true, true, true, true, true, true, true, true, true, true, true, true, true, true, true, true, true, true, true, true, true, true, true, true, true, true, true, true, true, true, true, true, true, true, true, true, true, true, true, true, true, true, true, true, true, true, true, true, true, true, true, true, true, true, true, true, true, true, true, true, true, true, true, true, true, true, true, true, true, true, true, true, true, true, true, true, true, true, true, true, true, true, true, true, true, true, true, true, true, true, true, true, true, true, true, true, true, true, true, true, true, true, true, true, true, true, true, true, true, true, true, true, true, true, true, true, true, true, true, true, true, true, true, true, true, true, true, true, true, true, true, true, true, true, true, true, true, true, true, true, true, true, true, true, true, true, true, true, true, true, true, true, true, true, true, true, true, true, true, true, true, true, true, true, true, true, true, true, true, true, true, true, true, true, true, true, true, true, true, true, true], [true, true, true, true, true, true, true, true, true, true, true, true, true, true, true, true, true, true, true, true, true, true, true, true, true, true, true, true, true, true, true, true, true, true, true, true, true, true, true, true, true, true, true, true, true, true, true, true, true, true, true, true, true, true, true, true, true, true, true, true, true, true, true, true, true, true, true, true, true, true, true, true, true, true, true, true, true, true, true, true, true, true, true, true, true, true, true, true, true, true, true, true, true, true, true, true, true, true, true, true, true, true, true, true, true, true, true, true, true, true, true, true, true, true, true, true, true, true, true, true, true, true, true, true, true, true, true, true, true, true, true, true, true, true, true, true, true, true, true, true, true, true, true, true, true, true, true, true, true, true, true, true, true, true, true, true, true, true, true, true, true, true, true, true, true, true, true, true, true, true, true, true, true, true, true, true, true, true, true, true, true, true, true, true, true, true, true, true], [true, true, true, true, true, true, true, true, true, true, true, true, true, true, true, true, true, true, true, true, true, true, true, true, true, true, true, true, true, true, true, true, true, true, true, true, true, true, true, true, true, true, true, true, true, true, true, true, true, true, true, true, true, true, true, true, true, true, true, true, true, true, true, true, true, true, true, true, true, true, true, true, true, true, true, true, true, true, true, true, true, true, true, true, true, true, true, true, true, true, true, true, true, true, true, true, true, true, true, true, true, true, true, true, true, true, true, true, true, true, true, true, true, true, true, true, true, true, true, true, true, true, true, true, true, true, true, true, true, true, true, true, true, true, true, true, true, true, true, true, true, true, true, true, true, true, true, true, true, true, true, true, true, true, true, true, true, true, true, true, true, true, true, true, true, true, true, true, true, true, true, true, true, true, true, true, true, true, true, true, true, true, true, true, true, true, true, true], [true, true, true, true, true, true, true, true, true, true, true, true, true, true, true, true, true, true, true, true, true, true, true, true, true, true, true, true, true, true, true, true, true, true, true, true, true, true, true, true, true, true, true, true, true, true, true, true, true, true, true, true, true, true, true, true, true, true, true, true, true, true, true, true, true, true, true, true, true, true, true, true, true, true, true, true, true, true, true, true, true, true, true, true, true, true, true, true, true, true, true, true, true, true, true, true, true, true, true, true, true, true, true, true, true, true, true, true, true, true, true, true, true, true, true, true, true, true, true, true, true, true, true, true, true, true, true, true, true, true, true, true, true, true, true, true, true, true, true, true, true, true, true, true, true, true, true, true, true, true, true, true, true, true, true, true, true, true, true, true, true, true, true, true, true, true, true, true, true, true, true, true, true, true, true, true, true, true, true, true, true, true, true, true, true, true, true, true], [true, true, true, true, true, true, true, true, true, true, true, true, true, true, true, true, true, true, true, true, true, true, true, true, true, true, true, true, true, true, true, true, true, true, true, true, true, true, true, true, true, true, true, true, true, true, true, true, true, true, true, true, true, true, true, true, true, true, true, true, true, true, true, true, true, true, true, true, true, true, true, true, true, true, true, true, true, true, true, true, true, true, true, true, true, true, true, true, true, true, true, true, true, true, true, true, true, true, true, true, true, true, true, true, true, true, true, true, true, true, true, true, true, true, true, true, true, true, true, true, true, true, true, true, true, true, true, true, true, true, true, true, true, true, true, true, true, true, true, true, true, true, true, true, true, true, true, true, true, true, true, true, true, true, true, true, true, true, true, true, true, true, true, true, true, true, true, true, true, true, true, true, true, true, true, true, true, true, true, true, true, true, true, true, true, true, true, true], [true, true, true, true, true, true, true, true, true, true, true, true, true, true, true, true, true, true, true, true, true, true, true, true, true, true, true, true, true, true, true, true, true, true, true, true, true, true, true, true, true, true, true, true, true, true, true, true, true, true, true, true, true, true, true, true, true, true, true, true, true, true, true, true, true, true, true, true, true, true, true, true, true, true, true, true, true, true, true, true, true, true, true, true, true, true, true, true, true, true, true, true, true, true, true, true, true, true, true, true, true, true, true, true, true, true, true, true, true, true, true, true, true, true, true, true, true, true, true, true, true, true, true, true, true, true, true, true, true, true, true, true, true, true, true, true, true, true, true, true, true, true, true, true, true, true, true, true, true, true, true, true, true, true, true, true, true, true, true, true, true, true, true, true, true, true, true, true, true, true, true, true, true, true, true, true, true, true, true, true, true, true, true, true, true, true, true, true], [true, true, true, true, true, true, true, true, true, true, true, true, true, true, true, true, true, true, true, true, true, true, true, true, true, true, true, true, true, true, true, true, true, true, true, true, true, true, true, true, true, true, true, true, true, true, true, true, true, true, true, true, true, true, true, true, true, true, true, true, true, true, true, true, true, true, true, true, true, true, true, true, true, true, true, true, true, true, true, true, true, true, true, true, true, true, true, true, true, true, true, true, true, true, true, true, true, true, true, true, true, true, true, true, true, true, true, true, true, true, true, true, true, true, true, true, true, true, true, true, true, true, true, true, true, true, true, true, true, true, true, true, true, true, true, true, true, true, true, true, true, true, true, true, true, true, true, true, true, true, true, true, true, true, true, true, true, true, true, true, true, true, true, true, true, true, true, true, true, true, true, true, true, true, true, true, true, true, true, true, true, true, true, true, true, true, true, true], [true, true, true, true, true, true, true, true, true, true, true, true, true, true, true, true, true, true, true, true, true, true, true, true, true, true, true, true, true, true, true, true, true, true, true, true, true, true, true, true, true, true, true, true, true, true, true, true, true, true, true, true, true, true, true, true, true, true, true, true, true, true, true, true, true, true, true, true, true, true, true, true, true, true, true, true, true, true, true, true, true, true, true, true, true, true, true, true, true, true, true, true, true, true, true, true, true, true, true, true, true, true, true, true, true, true, true, true, true, true, true, true, true, true, true, true, true, true, true, true, true, true, true, true, true, true, true, true, true, true, true, true, true, true, true, true, true, true, true, true, true, true, true, true, true, true, true, true, true, true, true, true, true, true, true, true, true, true, true, true, true, true, true, true, true, true, true, true, true, true, true, true, true, true, true, true, true, true, true, true, true, true, true, true, true, true, true, true], [true, true, true, true, true, true, true, true, true, true, true, true, true, true, true, true, true, true, true, true, true, true, true, true, true, true, true, true, true, true, true, true, true, true, true, true, true, true, true, true, true, true, true, true, true, true, true, true, true, true, true, true, true, true, true, true, true, true, true, true, true, true, true, true, true, true, true, true, true, true, true, true, true, true, true, true, true, true, true, true, true, true, true, true, true, true, true, true, true, true, true, true, true, true, true, true, true, true, true, true, true, true, true, true, true, true, true, true, true, true, true, true, true, true, true, true, true, true, true, true, true, true, true, true, true, true, true, true, true, true, true, true, true, true, true, true, true, true, true, true, true, true, true, true, true, true, true, true, true, true, true, true, true, true, true, true, true, true, true, true, true, true, true, true, true, true, true, true, true, true, true, true, true, true, true, true, true, true, true, true, true, true, true, true, true, true, true, true], [true, true, true, true, true, true, true, true, true, true, true, true, true, true, true, true, true, true, true, true, true, true, true, true, true, true, true, true, true, true, true, true, true, true, true, true, true, true, true, true, true, true, true, true, true, true, true, true, true, true, true, true, true, true, true, true, true, true, true, true, true, true, true, true, true, true, true, true, true, true, true, true, true, true, true, true, true, true, true, true, true, true, true, true, true, true, true, true, true, true, true, true, true, true, true, true, true, true, true, true, true, true, true, true, true, true, true, true, true, true, true, true, true, true, true, true, true, true, true, true, true, true, true, true, true, true, true, true, true, true, true, true, true, true, true, true, true, true, true, true, true, true, true, true, true, true, true, true, true, true, true, true, true, true, true, true, true, true, true, true, true, true, true, true, true, true, true, true, true, true, true, true, true, true, true, true, true, true, true, true, true, true, true, true, true, true, true, true], [true, true, true, true, true, true, true, true, true, true, true, true, true, true, true, true, true, true, true, true, true, true, true, true, true, true, true, true, true, true, true, true, true, true, true, true, true, true, true, true, true, true, true, true, true, true, true, true, true, true, true, true, true, true, true, true, true, true, true, true, true, true, true, true, true, true, true, true, true, true, true, true, true, true, true, true, true, true, true, true, true, true, true, true, true, true, true, true, true, true, true, true, true, true, true, true, true, true, true, true, true, true, true, true, true, true, true, true, true, true, true, true, true, true, true, true, true, true, true, true, true, true, true, true, true, true, true, true, true, true, true, true, true, true, true, true, true, true, true, true, true, true, true, true, true, true, true, true, true, true, true, true, true, true, true, true, true, true, true, true, true, true, true, true, true, true, true, true, true, true, true, true, true, true, true, true, true, true, true, true, true, true, true, true, true, true, true, true], [true, true, true, true, true, true, true, true, true, true, true, true, true, true, true, true, true, true, true, true, true, true, true, true, true, true, true, true, true, true, true, true, true, true, true, true, true, true, true, true, true, true, true, true, true, true, true, true, true, true, true, true, true, true, true, true, true, true, true, true, true, true, true, true, true, true, true, true, true, true, true, true, true, true, true, true, true, true, true, true, true, true, true, true, true, true, true, true, true, true, true, true, true, true, true, true, true, true, true, true, true, true, true, true, true, true, true, true, true, true, true, true, true, true, true, true, true, true, true, true, true, true, true, true, true, true, true, true, true, true, true, true, true, true, true, true, true, true, true, true, true, true, true, true, true, true, true, true, true, true, true, true, true, true, true, true, true, true, true, true, true, true, true, true, true, true, true, true, true, true, true, true, true, true, true, true, true, true, true, true, true, true, true, true, true, true, true, true], [true, true, true, true, true, true, true, true, true, true, true, true, true, true, true, true, true, true, true, true, true, true, true, true, true, true, true, true, true, true, true, true, true, true, true, true, true, true, true, true, true, true, true, true, true, true, true, true, true, true, true, true, true, true, true, true, true, true, true, true, true, true, true, true, true, true, true, true, true, true, true, true, true, true, true, true, true, true, true, true, true, true, true, true, true, true, true, true, true, true, true, true, true, true, true, true, true, true, true, true, true, true, true, true, true, true, true, true, true, true, true, true, true, true, true, true, true, true, true, true, true, true, true, true, true, true, true, true, true, true, true, true, true, true, true, true, true, true, true, true, true, true, true, true, true, true, true, true, true, true, true, true, true, true, true, true, true, true, true, true, true, true, true, true, true, true, true, true, true, true, true, true, true, true, true, true, true, true, true, true, true, true, true, true, true, true, true, true], [true, true, true, true, true, true, true, true, true, true, true, true, true, true, true, true, true, true, true, true, true, true, true, true, true, true, true, true, true, true, true, true, true, true, true, true, true, true, true, true, true, true, true, true, true, true, true, true, true, true, true, true, true, true, true, true, true, true, true, true, true, true, true, true, true, true, true, true, true, true, true, true, true, true, true, true, true, true, true, true, true, true, true, true, true, true, true, true, true, true, true, true, true, true, true, true, true, true, true, true, true, true, true, true, true, true, true, true, true, true, true, true, true, true, true, true, true, true, true, true, true, true, true, true, true, true, true, true, true, true, true, true, true, true, true, true, true, true, true, true, true, true, true, true, true, true, true, true, true, true, true, true, true, true, true, true, true, true, true, true, true, true, true, true, true, true, true, true, true, true, true, true, true, true, true, true, true, true, true, true, true, true, true, true, true, true, true, true], [true, true, true, true, true, true, true, true, true, true, true, true, true, true, true, true, true, true, true, true, true, true, true, true, true, true, true, true, true, true, true, true, true, true, true, true, true, true, true, true, true, true, true, true, true, true, true, true, true, true, true, true, true, true, true, true, true, true, true, true, true, true, true, true, true, true, true, true, true, true, true, true, true, true, true, true, true, true, true, true, true, true, true, true, true, true, true, true, true, true, true, true, true, true, true, true, true, true, true, true, true, true, true, true, true, true, true, true, true, true, true, true, true, true, true, true, true, true, true, true, true, true, true, true, true, true, true, true, true, true, true, true, true, true, true, true, true, true, true, true, true, true, true, true, true, true, true, true, true, true, true, true, true, true, true, true, true, true, true, true, true, true, true, true, true, true, true, true, true, true, true, true, true, true, true, true, true, true, true, true, true, true, true, true, true, true, true, true], [true, true, true, true, true, true, true, true, true, true, true, true, true, true, true, true, true, true, true, true, true, true, true, true, true, true, true, true, true, true, true, true, true, true, true, true, true, true, true, true, true, true, true, true, true, true, true, true, true, true, true, true, true, true, true, true, true, true, true, true, true, true, true, true, true, true, true, true, true, true, true, true, true, true, true, true, true, true, true, true, true, true, true, true, true, true, true, true, true, true, true, true, true, true, true, true, true, true, true, true, true, true, true, true, true, true, true, true, true, true, true, true, true, true, true, true, true, true, true, true, true, true, true, true, true, true, true, true, true, true, true, true, true, true, true, true, true, true, true, true, true, true, true, true, true, true, true, true, true, true, true, true, true, true, true, true, true, true, true, true, true, true, true, true, true, true, true, true, true, true, true, true, true, true, true, true, true, true, true, true, true, true, true, true, true, true, true, true], [true, true, true, true, true, true, true, true, true, true, true, true, true, true, true, true, true, true, true, true, true, true, true, true, true, true, true, true, true, true, true, true, true, true, true, true, true, true, true, true, true, true, true, true, true, true, true, true, true, true, true, true, true, true, true, true, true, true, true, true, true, true, true, true, true, true, true, true, true, true, true, true, true, true, true, true, true, true, true, true, true, true, true, true, true, true, true, true, true, true, true, true, true, true, true, true, true, true, true, true, true, true, true, true, true, true, true, true, true, true, true, true, true, true, true, true, true, true, true, true, true, true, true, true, true, true, true, true, true, true, true, true, true, true, true, true, true, true, true, true, true, true, true, true, true, true, true, true, true, true, true, true, true, true, true, true, true, true, true, true, true, true, true, true, true, true, true, true, true, true, true, true, true, true, true, true, true, true, true, true, true, true, true, true, true, true, true, true], [true, true, true, true, true, true, true, true, true, true, true, true, true, true, true, true, true, true, true, true, true, true, true, true, true, true, true, true, true, true, true, true, true, true, true, true, true, true, true, true, true, true, true, true, true, true, true, true, true, true, true, true, true, true, true, true, true, true, true, true, true, true, true, true, true, true, true, true, true, true, true, true, true, true, true, true, true, true, true, true, true, true, true, true, true, true, true, true, true, true, true, true, true, true, true, true, true, true, true, true, true, true, true, true, true, true, true, true, true, true, true, true, true, true, true, true, true, true, true, true, true, true, true, true, true, true, true, true, true, true, true, true, true, true, true, true, true, true, true, true, true, true, true, true, true, true, true, true, true, true, true, true, true, true, true, true, true, true, true, true, true, true, true, true, true, true, true, true, true, true, true, true, true, true, true, true, true, true, true, true, true, true, true, true, true, true, true, true], [true, true, true, true, true, true, true, true, true, true, true, true, true, true, true, true, true, true, true, true, true, true, true, true, true, true, true, true, true, true, true, true, true, true, true, true, true, true, true, true, true, true, true, true, true, true, true, true, true, true, true, true, true, true, true, true, true, true, true, true, true, true, true, true, true, true, true, true, true, true, true, true, true, true, true, true, true, true, true, true, true, true, true, true, true, true, true, true, true, true, true, true, true, true, true, true, true, true, true, true, true, true, true, true, true, true, true, true, true, true, true, true, true, true, true, true, true, true, true, true, true, true, true, true, true, true, true, true, true, true, true, true, true, true, true, true, true, true, true, true, true, true, true, true, true, true, true, true, true, true, true, true, true, true, true, true, true, true, true, true, true, true, true, true, true, true, true, true, true, true, true, true, true, true, true, true, true, true, true, true, true, true, true, true, true, true, true, true], [true, true, true, true, true, true, true, true, true, true, true, true, true, true, true, true, true, true, true, true, true, true, true, true, true, true, true, true, true, true, true, true, true, true, true, true, true, true, true, true, true, true, true, true, true, true, true, true, true, true, true, true, true, true, true, true, true, true, true, true, true, true, true, true, true, true, true, true, true, true, true, true, true, true, true, true, true, true, true, true, true, true, true, true, true, true, true, true, true, true, true, true, true, true, true, true, true, true, true, true, true, true, true, true, true, true, true, true, true, true, true, true, true, true, true, true, true, true, true, true, true, true, true, true, true, true, true, true, true, true, true, true, true, true, true, true, true, true, true, true, true, true, true, true, true, true, true, true, true, true, true, true, true, true, true, true, true, true, true, true, true, true, true, true, true, true, true, true, true, true, true, true, true, true, true, true, true, true, true, true, true, true, true, true, true, true, true, true], [true, true, true, true, true, true, true, true, true, true, true, true, true, true, true, true, true, true, true, true, true, true, true, true, true, true, true, true, true, true, true, true, true, true, true, true, true, true, true, true, true, true, true, true, true, true, true, true, true, true, true, true, true, true, true, true, true, true, true, true, true, true, true, true, true, true, true, true, true, true, true, true, true, true, true, true, true, true, true, true, true, true, true, true, true, true, true, true, true, true, true, true, true, true, true, true, true, true, true, true, true, true, true, true, true, true, true, true, true, true, true, true, true, true, true, true, true, true, true, true, true, true, true, true, true, true, true, true, true, true, true, true, true, true, true, true, true, true, true, true, true, true, true, true, true, true, true, true, true, true, true, true, true, true, true, true, true, true, true, true, true, true, true, true, true, true, true, true, true, true, true, true, true, true, true, true, true, true, true, true, true, true, true, true, true, true, true, true], [true, true, true, true, true, true, true, true, true, true, true, true, true, true, true, true, true, true, true, true, true, true, true, true, true, true, true, true, true, true, true, true, true, true, true, true, true, true, true, true, true, true, true, true, true, true, true, true, true, true, true, true, true, true, true, true, true, true, true, true, true, true, true, true, true, true, true, true, true, true, true, true, true, true, true, true, true, true, true, true, true, true, true, true, true, true, true, true, true, true, true, true, true, true, true, true, true, true, true, true, true, true, true, true, true, true, true, true, true, true, true, true, true, true, true, true, true, true, true, true, true, true, true, true, true, true, true, true, true, true, true, true, true, true, true, true, true, true, true, true, true, true, true, true, true, true, true, true, true, true, true, true, true, true, true, true, true, true, true, true, true, true, true, true, true, true, true, true, true, true, true, true, true, true, true, true, true, true, true, true, true, true, true, true, true, true, true, true], [true, true, true, true, true, true, true, true, true, true, true, true, true, true, true, true, true, true, true, true, true, true, true, true, true, true, true, true, true, true, true, true, true, true, true, true, true, true, true, true, true, true, true, true, true, true, true, true, true, true, true, true, true, true, true, true, true, true, true, true, true, true, true, true, true, true, true, true, true, true, true, true, true, true, true, true, true, true, true, true, true, true, true, true, true, true, true, true, true, true, true, true, true, true, true, true, true, true, true, true, true, true, true, true, true, true, true, true, true, true, true, true, true, true, true, true, true, true, true, true, true, true, true, true, true, true, true, true, true, true, true, true, true, true, true, true, true, true, true, true, true, true, true, true, true, true, true, true, true, true, true, true, true, true, true, true, true, true, true, true, true, true, true, true, true, true, true, true, true, true, true, true, true, true, true, true, true, true, true, true, true, true, true, true, true, true, true, true], [true, true, true, true, true, true, true, true, true, true, true, true, true, true, true, true, true, true, true, true, true, true, true, true, true, true, true, true, true, true, true, true, true, true, true, true, true, true, true, true, true, true, true, true, true, true, true, true, true, true, true, true, true, true, true, true, true, true, true, true, true, true, true, true, true, true, true, true, true, true, true, true, true, true, true, true, true, true, true, true, true, true, true, true, true, true, true, true, true, true, true, true, true, true, true, true, true, true, true, true, true, true, true, true, true, true, true, true, true, true, true, true, true, true, true, true, true, true, true, true, true, true, true, true, true, true, true, true, true, true, true, true, true, true, true, true, true, true, true, true, true, true, true, true, true, true, true, true, true, true, true, true, true, true, true, true, true, true, true, true, true, true, true, true, true, true, true, true, true, true, true, true, true, true, true, true, true, true, true, true, true, true, true, true, true, true, true, true], [true, true, true, true, true, true, true, true, true, true, true, true, true, true, true, true, true, true, true, true, true, true, true, true, true, true, true, true, true, true, true, true, true, true, true, true, true, true, true, true, true, true, true, true, true, true, true, true, true, true, true, true, true, true, true, true, true, true, true, true, true, true, true, true, true, true, true, true, true, true, true, true, true, true, true, true, true, true, true, true, true, true, true, true, true, true, true, true, true, true, true, true, true, true, true, true, true, true, true, true, true, true, true, true, true, true, true, true, true, true, true, true, true, true, true, true, true, true, true, true, true, true, true, true, true, true, true, true, true, true, true, true, true, true, true, true, true, true, true, true, true, true, true, true, true, true, true, true, true, true, true, true, true, true, true, true, true, true, true, true, true, true, true, true, true, true, true, true, true, true, true, true, true, true, true, true, true, true, true, true, true, true, true, true, true, true, true, true], [true, true, true, true, true, true, true, true, true, true, true, true, true, true, true, true, true, true, true, true, true, true, true, true, true, true, true, true, true, true, true, true, true, true, true, true, true, true, true, true, true, true, true, true, true, true, true, true, true, true, true, true, true, true, true, true, true, true, true, true, true, true, true, true, true, true, true, true, true, true, true, true, true, true, true, true, true, true, true, true, true, true, true, true, true, true, true, true, true, true, true, true, true, true, true, true, true, true, true, true, true, true, true, true, true, true, true, true, true, true, true, true, true, true, true, true, true, true, true, true, true, true, true, true, true, true, true, true, true, true, true, true, true, true, true, true, true, true, true, true, true, true, true, true, true, true, true, true, true, true, true, true, true, true, true, true, true, true, true, true, true, true, true, true, true, true, true, true, true, true, true, true, true, true, true, true, true, true, true, true, true, true, true, true, true, true, true, true], [true, true, true, true, true, true, true, true, true, true, true, true, true, true, true, true, true, true, true, true, true, true, true, true, true, true, true, true, true, true, true, true, true, true, true, true, true, true, true, true, true, true, true, true, true, true, true, true, true, true, true, true, true, true, true, true, true, true, true, true, true, true, true, true, true, true, true, true, true, true, true, true, true, true, true, true, true, true, true, true, true, true, true, true, true, true, true, true, true, true, true, true, true, true, true, true, true, true, true, true, true, true, true, true, true, true, true, true, true, true, true, true, true, true, true, true, true, true, true, true, true, true, true, true, true, true, true, true, true, true, true, true, true, true, true, true, true, true, true, true, true, true, true, true, true, true, true, true, true, true, true, true, true, true, true, true, true, true, true, true, true, true, true, true, true, true, true, true, true, true, true, true, true, true, true, true, true, true, true, true, true, true, true, true, true, true, true, true], [true, true, true, true, true, true, true, true, true, true, true, true, true, true, true, true, true, true, true, true, true, true, true, true, true, true, true, true, true, true, true, true, true, true, true, true, true, true, true, true, true, true, true, true, true, true, true, true, true, true, true, true, true, true, true, true, true, true, true, true, true, true, true, true, true, true, true, true, true, true, true, true, true, true, true, true, true, true, true, true, true, true, true, true, true, true, true, true, true, true, true, true, true, true, true, true, true, true, true, true, true, true, true, true, true, true, true, true, true, true, true, true, true, true, true, true, true, true, true, true, true, true, true, true, true, true, true, true, true, true, true, true, true, true, true, true, true, true, true, true, true, true, true, true, true, true, true, true, true, true, true, true, true, true, true, true, true, true, true, true, true, true, true, true, true, true, true, true, true, true, true, true, true, true, true, true, true, true, true, true, true, true, true, true, true, true, true, true], [true, true, true, true, true, true, true, true, true, true, true, true, true, true, true, true, true, true, true, true, true, true, true, true, true, true, true, true, true, true, true, true, true, true, true, true, true, true, true, true, true, true, true, true, true, true, true, true, true, true, true, true, true, true, true, true, true, true, true, true, true, true, true, true, true, true, true, true, true, true, true, true, true, true, true, true, true, true, true, true, true, true, true, true, true, true, true, true, true, true, true, true, true, true, true, true, true, true, true, true, true, true, true, true, true, true, true, true, true, true, true, true, true, true, true, true, true, true, true, true, true, true, true, true, true, true, true, true, true, true, true, true, true, true, true, true, true, true, true, true, true, true, true, true, true, true, true, true, true, true, true, true, true, true, true, true, true, true, true, true, true, true, true, true, true, true, true, true, true, true, true, true, true, true, true, true, true, true, true, true, true, true, true, true, true, true, true, true], [true, true, true, true, true, true, true, true, true, true, true, true, true, true, true, true, true, true, true, true, true, true, true, true, true, true, true, true, true, true, true, true, true, true, true, true, true, true, true, true, true, true, true, true, true, true, true, true, true, true, true, true, true, true, true, true, true, true, true, true, true, true, true, true, true, true, true, true, true, true, true, true, true, true, true, true, true, true, true, true, true, true, true, true, true, true, true, true, true, true, true, true, true, true, true, true, true, true, true, true, true, true, true, true, true, true, true, true, true, true, true, true, true, true, true, true, true, true, true, true, true, true, true, true, true, true, true, true, true, true, true, true, true, true, true, true, true, true, true, true, true, true, true, true, true, true, true, true, true, true, true, true, true, true, true, true, true, true, true, true, true, true, true, true, true, true, true, true, true, true, true, true, true, true, true, true, true, true, true, true, true, true, true, true, true, true, true, true], [true, true, true, true, true, true, true, true, true, true, true, true, true, true, true, true, true, true, true, true, true, true, true, true, true, true, true, true, true, true, true, true, true, true, true, true, true, true, true, true, true, true, true, true, true, true, true, true, true, true, true, true, true, true, true, true, true, true, true, true, true, true, true, true, true, true, true, true, true, true, true, true, true, true, true, true, true, true, true, true, true, true, true, true, true, true, true, true, true, true, true, true, true, true, true, true, true, true, true, true, true, true, true, true, true, true, true, true, true, true, true, true, true, true, true, true, true, true, true, true, true, true, true, true, true, true, true, true, true, true, true, true, true, true, true, true, true, true, true, true, true, true, true, true, true, true, true, true, true, true, true, true, true, true, true, true, true, true, true, true, true, true, true, true, true, true, true, true, true, true, true, true, true, true, true, true, true, true, true, true, true, true, true, true, true, true, true, true], [true, true, true, true, true, true, true, true, true, true, true, true, true, true, true, true, true, true, true, true, true, true, true, true, true, true, true, true, true, true, true, true, true, true, true, true, true, true, true, true, true, true, true, true, true, true, true, true, true, true, true, true, true, true, true, true, true, true, true, true, true, true, true, true, true, true, true, true, true, true, true, true, true, true, true, true, true, true, true, true, true, true, true, true, true, true, true, true, true, true, true, true, true, true, true, true, true, true, true, true, true, true, true, true, true, true, true, true, true, true, true, true, true, true, true, true, true, true, true, true, true, true, true, true, true, true, true, true, true, true, true, true, true, true, true, true, true, true, true, true, true, true, true, true, true, true, true, true, true, true, true, true, true, true, true, true, true, true, true, true, true, true, true, true, true, true, true, true, true, true, true, true, true, true, true, true, true, true, true, true, true, true, true, true, true, true, true, true], [true, true, true, true, true, true, true, true, true, true, true, true, true, true, true, true, true, true, true, true, true, true, true, true, true, true, true, true, true, true, true, true, true, true, true, true, true, true, true, true, true, true, true, true, true, true, true, true, true, true, true, true, true, true, true, true, true, true, true, true, true, true, true, true, true, true, true, true, true, true, true, true, true, true, true, true, true, true, true, true, true, true, true, true, true, true, true, true, true, true, true, true, true, true, true, true, true, true, true, true, true, true, true, true, true, true, true, true, true, true, true, true, true, true, true, true, true, true, true, true, true, true, true, true, true, true, true, true, true, true, true, true, true, true, true, true, true, true, true, true, true, true, true, true, true, true, true, true, true, true, true, true, true, true, true, true, true, true, true, true, true, true, true, true, true, true, true, true, true, true, true, true, true, true, true, true, true, true, true, true, true, true, true, true, true, true, true, true], [true, true, true, true, true, true, true, true, true, true, true, true, true, true, true, true, true, true, true, true, true, true, true, true, true, true, true, true, true, true, true, true, true, true, true, true, true, true, true, true, true, true, true, true, true, true, true, true, true, true, true, true, true, true, true, true, true, true, true, true, true, true, true, true, true, true, true, true, true, true, true, true, true, true, true, true, true, true, true, true, true, true, true, true, true, true, true, true, true, true, true, true, true, true, true, true, true, true, true, true, true, true, true, true, true, true, true, true, true, true, true, true, true, true, true, true, true, true, true, true, true, true, true, true, true, true, true, true, true, true, true, true, true, true, true, true, true, true, true, true, true, true, true, true, true, true, true, true, true, true, true, true, true, true, true, true, true, true, true, true, true, true, true, true, true, true, true, true, true, true, true, true, true, true, true, true, true, true, true, true, true, true, true, true, true, true, true, true], [true, true, true, true, true, true, true, true, true, true, true, true, true, true, true, true, true, true, true, true, true, true, true, true, true, true, true, true, true, true, true, true, true, true, true, true, true, true, true, true, true, true, true, true, true, true, true, true, true, true, true, true, true, true, true, true, true, true, true, true, true, true, true, true, true, true, true, true, true, true, true, true, true, true, true, true, true, true, true, true, true, true, true, true, true, true, true, true, true, true, true, true, true, true, true, true, true, true, true, true, true, true, true, true, true, true, true, true, true, true, true, true, true, true, true, true, true, true, true, true, true, true, true, true, true, true, true, true, true, true, true, true, true, true, true, true, true, true, true, true, true, true, true, true, true, true, true, true, true, true, true, true, true, true, true, true, true, true, true, true, true, true, true, true, true, true, true, true, true, true, true, true, true, true, true, true, true, true, true, true, true, true, true, true, true, true, true, true], [true, true, true, true, true, true, true, true, true, true, true, true, true, true, true, true, true, true, true, true, true, true, true, true, true, true, true, true, true, true, true, true, true, true, true, true, true, true, true, true, true, true, true, true, true, true, true, true, true, true, true, true, true, true, true, true, true, true, true, true, true, true, true, true, true, true, true, true, true, true, true, true, true, true, true, true, true, true, true, true, true, true, true, true, true, true, true, true, true, true, true, true, true, true, true, true, true, true, true, true, true, true, true, true, true, true, true, true, true, true, true, true, true, true, true, true, true, true, true, true, true, true, true, true, true, true, true, true, true, true, true, true, true, true, true, true, true, true, true, true, true, true, true, true, true, true, true, true, true, true, true, true, true, true, true, true, true, true, true, true, true, true, true, true, true, true, true, true, true, true, true, true, true, true, true, true, true, true, true, true, true, true, true, true, true, true, true, true], [true, true, true, true, true, true, true, true, true, true, true, true, true, true, true, true, true, true, true, true, true, true, true, true, true, true, true, true, true, true, true, true, true, true, true, true, true, true, true, true, true, true, true, true, true, true, true, true, true, true, true, true, true, true, true, true, true, true, true, true, true, true, true, true, true, true, true, true, true, true, true, true, true, true, true, true, true, true, true, true, true, true, true, true, true, true, true, true, true, true, true, true, true, true, true, true, true, true, true, true, true, true, true, true, true, true, true, true, true, true, true, true, true, true, true, true, true, true, true, true, true, true, true, true, true, true, true, true, true, true, true, true, true, true, true, true, true, true, true, true, true, true, true, true, true, true, true, true, true, true, true, true, true, true, true, true, true, true, true, true, true, true, true, true, true, true, true, true, true, true, true, true, true, true, true, true, true, true, true, true, true, true, true, true, true, true, true, true], [true, true, true, true, true, true, true, true, true, true, true, true, true, true, true, true, true, true, true, true, true, true, true, true, true, true, true, true, true, true, true, true, true, true, true, true, true, true, true, true, true, true, true, true, true, true, true, true, true, true, true, true, true, true, true, true, true, true, true, true, true, true, true, true, true, true, true, true, true, true, true, true, true, true, true, true, true, true, true, true, true, true, true, true, true, true, true, true, true, true, true, true, true, true, true, true, true, true, true, true, true, true, true, true, true, true, true, true, true, true, true, true, true, true, true, true, true, true, true, true, true, true, true, true, true, true, true, true, true, true, true, true, true, true, true, true, true, true, true, true, true, true, true, true, true, true, true, true, true, true, true, true, true, true, true, true, true, true, true, true, true, true, true, true, true, true, true, true, true, true, true, true, true, true, true, true, true, true, true, true, true, true, true, true, true, true, true, true], [true, true, true, true, true, true, true, true, true, true, true, true, true, true, true, true, true, true, true, true, true, true, true, true, true, true, true, true, true, true, true, true, true, true, true, true, true, true, true, true, true, true, true, true, true, true, true, true, true, true, true, true, true, true, true, true, true, true, true, true, true, true, true, true, true, true, true, true, true, true, true, true, true, true, true, true, true, true, true, true, true, true, true, true, true, true, true, true, true, true, true, true, true, true, true, true, true, true, true, true, true, true, true, true, true, true, true, true, true, true, true, true, true, true, true, true, true, true, true, true, true, true, true, true, true, true, true, true, true, true, true, true, true, true, true, true, true, true, true, true, true, true, true, true, true, true, true, true, true, true, true, true, true, true, true, true, true, true, true, true, true, true, true, true, true, true, true, true, true, true, true, true, true, true, true, true, true, true, true, true, true, true, true, true, true, true, true, true], [true, true, true, true, true, true, true, true, true, true, true, true, true, true, true, true, true, true, true, true, true, true, true, true, true, true, true, true, true, true, true, true, true, true, true, true, true, true, true, true, true, true, true, true, true, true, true, true, true, true, true, true, true, true, true, true, true, true, true, true, true, true, true, true, true, true, true, true, true, true, true, true, true, true, true, true, true, true, true, true, true, true, true, true, true, true, true, true, true, true, true, true, true, true, true, true, true, true, true, true, true, true, true, true, true, true, true, true, true, true, true, true, true, true, true, true, true, true, true, true, true, true, true, true, true, true, true, true, true, true, true, true, true, true, true, true, true, true, true, true, true, true, true, true, true, true, true, true, true, true, true, true, true, true, true, true, true, true, true, true, true, true, true, true, true, true, true, true, true, true, true, true, true, true, true, true, true, true, true, true, true, true, true, true, true, true, true, true], [true, true, true, true, true, true, true, true, true, true, true, true, true, true, true, true, true, true, true, true, true, true, true, true, true, true, true, true, true, true, true, true, true, true, true, true, true, true, true, true, true, true, true, true, true, true, true, true, true, true, true, true, true, true, true, true, true, true, true, true, true, true, true, true, true, true, true, true, true, true, true, true, true, true, true, true, true, true, true, true, true, true, true, true, true, true, true, true, true, true, true, true, true, true, true, true, true, true, true, true, true, true, true, true, true, true, true, true, true, true, true, true, true, true, true, true, true, true, true, true, true, true, true, true, true, true, true, true, true, true, true, true, true, true, true, true, true, true, true, true, true, true, true, true, true, true, true, true, true, true, true, true, true, true, true, true, true, true, true, true, true, true, true, true, true, true, true, true, true, true, true, true, true, true, true, true, true, true, true, true, true, true, true, true, true, true, true, true], [true, true, true, true, true, true, true, true, true, true, true, true, true, true, true, true, true, true, true, true, true, true, true, true, true, true, true, true, true, true, true, true, true, true, true, true, true, true, true, true, true, true, true, true, true, true, true, true, true, true, true, true, true, true, true, true, true, true, true, true, true, true, true, true, true, true, true, true, true, true, true, true, true, true, true, true, true, true, true, true, true, true, true, true, true, true, true, true, true, true, true, true, true, true, true, true, true, true, true, true, true, true, true, true, true, true, true, true, true, true, true, true, true, true, true, true, true, true, true, true, true, true, true, true, true, true, true, true, true, true, true, true, true, true, true, true, true, true, true, true, true, true, true, true, true, true, true, true, true, true, true, true, true, true, true, true, true, true, true, true, true, true, true, true, true, true, true, true, true, true, true, true, true, true, true, true, true, true, true, true, true, true, true, true, true, true, true, true], [true, true, true, true, true, true, true, true, true, true, true, true, true, true, true, true, true, true, true, true, true, true, true, true, true, true, true, true, true, true, true, true, true, true, true, true, true, true, true, true, true, true, true, true, true, true, true, true, true, true, true, true, true, true, true, true, true, true, true, true, true, true, true, true, true, true, true, true, true, true, true, true, true, true, true, true, true, true, true, true, true, true, true, true, true, true, true, true, true, true, true, true, true, true, true, true, true, true, true, true, true, true, true, true, true, true, true, true, true, true, true, true, true, true, true, true, true, true, true, true, true, true, true, true, true, true, true, true, true, true, true, true, true, true, true, true, true, true, true, true, true, true, true, true, true, true, true, true, true, true, true, true, true, true, true, true, true, true, true, true, true, true, true, true, true, true, true, true, true, true, true, true, true, true, true, true, true, true, true, true, true, true, true, true, true, true, true, true], [true, true, true, true, true, true, true, true, true, true, true, true, true, true, true, true, true, true, true, true, true, true, true, true, true, true, true, true, true, true, true, true, true, true, true, true, true, true, true, true, true, true, true, true, true, true, true, true, true, true, true, true, true, true, true, true, true, true, true, true, true, true, true, true, true, true, true, true, true, true, true, true, true, true, true, true, true, true, true, true, true, true, true, true, true, true, true, true, true, true, true, true, true, true, true, true, true, true, true, true, true, true, true, true, true, true, true, true, true, true, true, true, true, true, true, true, true, true, true, true, true, true, true, true, true, true, true, true, true, true, true, true, true, true, true, true, true, true, true, true, true, true, true, true, true, true, true, true, true, true, true, true, true, true, true, true, true, true, true, true, true, true, true, true, true, true, true, true, true, true, true, true, true, true, true, true, true, true, true, true, true, true, true, true, true, true, true, true], [true, true, true, true, true, true, true, true, true, true, true, true, true, true, true, true, true, true, true, true, true, true, true, true, true, true, true, true, true, true, true, true, true, true, true, true, true, true, true, true, true, true, true, true, true, true, true, true, true, true, true, true, true, true, true, true, true, true, true, true, true, true, true, true, true, true, true, true, true, true, true, true, true, true, true, true, true, true, true, true, true, true, true, true, true, true, true, true, true, true, true, true, true, true, true, true, true, true, true, true, true, true, true, true, true, true, true, true, true, true, true, true, true, true, true, true, true, true, true, true, true, true, true, true, true, true, true, true, true, true, true, true, true, true, true, true, true, true, true, true, true, true, true, true, true, true, true, true, true, true, true, true, true, true, true, true, true, true, true, true, true, true, true, true, true, true, true, true, true, true, true, true, true, true, true, true, true, true, true, true, true, true, true, true, true, true, true, true], [true, true, true, true, true, true, true, true, true, true, true, true, true, true, true, true, true, true, true, true, true, true, true, true, true, true, true, true, true, true, true, true, true, true, true, true, true, true, true, true, true, true, true, true, true, true, true, true, true, true, true, true, true, true, true, true, true, true, true, true, true, true, true, true, true, true, true, true, true, true, true, true, true, true, true, true, true, true, true, true, true, true, true, true, true, true, true, true, true, true, true, true, true, true, true, true, true, true, true, true, true, true, true, true, true, true, true, true, true, true, true, true, true, true, true, true, true, true, true, true, true, true, true, true, true, true, true, true, true, true, true, true, true, true, true, true, true, true, true, true, true, true, true, true, true, true, true, true, true, true, true, true, true, true, true, true, true, true, true, true, true, true, true, true, true, true, true, true, true, true, true, true, true, true, true, true, true, true, true, true, true, true, true, true, true, true, true, true], [true, true, true, true, true, true, true, true, true, true, true, true, true, true, true, true, true, true, true, true, true, true, true, true, true, true, true, true, true, true, true, true, true, true, true, true, true, true, true, true, true, true, true, true, true, true, true, true, true, true, true, true, true, true, true, true, true, true, true, true, true, true, true, true, true, true, true, true, true, true, true, true, true, true, true, true, true, true, true, true, true, true, true, true, true, true, true, true, true, true, true, true, true, true, true, true, true, true, true, true, true, true, true, true, true, true, true, true, true, true, true, true, true, true, true, true, true, true, true, true, true, true, true, true, true, true, true, true, true, true, true, true, true, true, true, true, true, true, true, true, true, true, true, true, true, true, true, true, true, true, true, true, true, true, true, true, true, true, true, true, true, true, true, true, true, true, true, true, true, true, true, true, true, true, true, true, true, true, true, true, true, true, true, true, true, true, true, true], [true, true, true, true, true, true, true, true, true, true, true, true, true, true, true, true, true, true, true, true, true, true, true, true, true, true, true, true, true, true, true, true, true, true, true, true, true, true, true, true, true, true, true, true, true, true, true, true, true, true, true, true, true, true, true, true, true, true, true, true, true, true, true, true, true, true, true, true, true, true, true, true, true, true, true, true, true, true, true, true, true, true, true, true, true, true, true, true, true, true, true, true, true, true, true, true, true, true, true, true, true, true, true, true, true, true, true, true, true, true, true, true, true, true, true, true, true, true, true, true, true, true, true, true, true, true, true, true, true, true, true, true, true, true, true, true, true, true, true, true, true, true, true, true, true, true, true, true, true, true, true, true, true, true, true, true, true, true, true, true, true, true, true, true, true, true, true, true, true, true, true, true, true, true, true, true, true, true, true, true, true, true, true, true, true, true, true, true], [true, true, true, true, true, true, true, true, true, true, true, true, true, true, true, true, true, true, true, true, true, true, true, true, true, true, true, true, true, true, true, true, true, true, true, true, true, true, true, true, true, true, true, true, true, true, true, true, true, true, true, true, true, true, true, true, true, true, true, true, true, true, true, true, true, true, true, true, true, true, true, true, true, true, true, true, true, true, true, true, true, true, true, true, true, true, true, true, true, true, true, true, true, true, true, true, true, true, true, true, true, true, true, true, true, true, true, true, true, true, true, true, true, true, true, true, true, true, true, true, true, true, true, true, true, true, true, true, true, true, true, true, true, true, true, true, true, true, true, true, true, true, true, true, true, true, true, true, true, true, true, true, true, true, true, true, true, true, true, true, true, true, true, true, true, true, true, true, true, true, true, true, true, true, true, true, true, true, true, true, true, true, true, true, true, true, true, true], [true, true, true, true, true, true, true, true, true, true, true, true, true, true, true, true, true, true, true, true, true, true, true, true, true, true, true, true, true, true, true, true, true, true, true, true, true, true, true, true, true, true, true, true, true, true, true, true, true, true, true, true, true, true, true, true, true, true, true, true, true, true, true, true, true, true, true, true, true, true, true, true, true, true, true, true, true, true, true, true, true, true, true, true, true, true, true, true, true, true, true, true, true, true, true, true, true, true, true, true, true, true, true, true, true, true, true, true, true, true, true, true, true, true, true, true, true, true, true, true, true, true, true, true, true, true, true, true, true, true, true, true, true, true, true, true, true, true, true, true, true, true, true, true, true, true, true, true, true, true, true, true, true, true, true, true, true, true, true, true, true, true, true, true, true, true, true, true, true, true, true, true, true, true, true, true, true, true, true, true, true, true, true, true, true, true, true, true], [true, true, true, true, true, true, true, true, true, true, true, true, true, true, true, true, true, true, true, true, true, true, true, true, true, true, true, true, true, true, true, true, true, true, true, true, true, true, true, true, true, true, true, true, true, true, true, true, true, true, true, true, true, true, true, true, true, true, true, true, true, true, true, true, true, true, true, true, true, true, true, true, true, true, true, true, true, true, true, true, true, true, true, true, true, true, true, true, true, true, true, true, true, true, true, true, true, true, true, true, true, true, true, true, true, true, true, true, true, true, true, true, true, true, true, true, true, true, true, true, true, true, true, true, true, true, true, true, true, true, true, true, true, true, true, true, true, true, true, true, true, true, true, true, true, true, true, true, true, true, true, true, true, true, true, true, true, true, true, true, true, true, true, true, true, true, true, true, true, true, true, true, true, true, true, true, true, true, true, true, true, true, true, true, true, true, true, true], [true, true, true, true, true, true, true, true, true, true, true, true, true, true, true, true, true, true, true, true, true, true, true, true, true, true, true, true, true, true, true, true, true, true, true, true, true, true, true, true, true, true, true, true, true, true, true, true, true, true, true, true, true, true, true, true, true, true, true, true, true, true, true, true, true, true, true, true, true, true, true, true, true, true, true, true, true, true, true, true, true, true, true, true, true, true, true, true, true, true, true, true, true, true, true, true, true, true, true, true, true, true, true, true, true, true, true, true, true, true, true, true, true, true, true, true, true, true, true, true, true, true, true, true, true, true, true, true, true, true, true, true, true, true, true, true, true, true, true, true, true, true, true, true, true, true, true, true, true, true, true, true, true, true, true, true, true, true, true, true, true, true, true, true, true, true, true, true, true, true, true, true, true, true, true, true, true, true, true, true, true, true, true, true, true, true, true, true], [true, true, true, true, true, true, true, true, true, true, true, true, true, true, true, true, true, true, true, true, true, true, true, true, true, true, true, true, true, true, true, true, true, true, true, true, true, true, true, true, true, true, true, true, true, true, true, true, true, true, true, true, true, true, true, true, true, true, true, true, true, true, true, true, true, true, true, true, true, true, true, true, true, true, true, true, true, true, true, true, true, true, true, true, true, true, true, true, true, true, true, true, true, true, true, true, true, true, true, true, true, true, true, true, true, true, true, true, true, true, true, true, true, true, true, true, true, true, true, true, true, true, true, true, true, true, true, true, true, true, true, true, true, true, true, true, true, true, true, true, true, true, true, true, true, true, true, true, true, true, true, true, true, true, true, true, true, true, true, true, true, true, true, true, true, true, true, true, true, true, true, true, true, true, true, true, true, true, true, true, true, true, true, true, true, true, true, true], [true, true, true, true, true, true, true, true, true, true, true, true, true, true, true, true, true, true, true, true, true, true, true, true, true, true, true, true, true, true, true, true, true, true, true, true, true, true, true, true, true, true, true, true, true, true, true, true, true, true, true, true, true, true, true, true, true, true, true, true, true, true, true, true, true, true, true, true, true, true, true, true, true, true, true, true, true, true, true, true, true, true, true, true, true, true, true, true, true, true, true, true, true, true, true, true, true, true, true, true, true, true, true, true, true, true, true, true, true, true, true, true, true, true, true, true, true, true, true, true, true, true, true, true, true, true, true, true, true, true, true, true, true, true, true, true, true, true, true, true, true, true, true, true, true, true, true, true, true, true, true, true, true, true, true, true, true, true, true, true, true, true, true, true, true, true, true, true, true, true, true, true, true, true, true, true, true, true, true, true, true, true, true, true, true, true, true, true], [true, true, true, true, true, true, true, true, true, true, true, true, true, true, true, true, true, true, true, true, true, true, true, true, true, true, true, true, true, true, true, true, true, true, true, true, true, true, true, true, true, true, true, true, true, true, true, true, true, true, true, true, true, true, true, true, true, true, true, true, true, true, true, true, true, true, true, true, true, true, true, true, true, true, true, true, true, true, true, true, true, true, true, true, true, true, true, true, true, true, true, true, true, true, true, true, true, true, true, true, true, true, true, true, true, true, true, true, true, true, true, true, true, true, true, true, true, true, true, true, true, true, true, true, true, true, true, true, true, true, true, true, true, true, true, true, true, true, true, true, true, true, true, true, true, true, true, true, true, true, true, true, true, true, true, true, true, true, true, true, true, true, true, true, true, true, true, true, true, true, true, true, true, true, true, true, true, true, true, true, true, true, true, true, true, true, true, true], [true, true, true, true, true, true, true, true, true, true, true, true, true, true, true, true, true, true, true, true, true, true, true, true, true, true, true, true, true, true, true, true, true, true, true, true, true, true, true, true, true, true, true, true, true, true, true, true, true, true, true, true, true, true, true, true, true, true, true, true, true, true, true, true, true, true, true, true, true, true, true, true, true, true, true, true, true, true, true, true, true, true, true, true, true, true, true, true, true, true, true, true, true, true, true, true, true, true, true, true, true, true, true, true, true, true, true, true, true, true, true, true, true, true, true, true, true, true, true, true, true, true, true, true, true, true, true, true, true, true, true, true, true, true, true, true, true, true, true, true, true, true, true, true, true, true, true, true, true, true, true, true, true, true, true, true, true, true, true, true, true, true, true, true, true, true, true, true, true, true, true, true, true, true, true, true, true, true, true, true, true, true, true, true, true, true, true, true], [true, true, true, true, true, true, true, true, true, true, true, true, true, true, true, true, true, true, true, true, true, true, true, true, true, true, true, true, true, true, true, true, true, true, true, true, true, true, true, true, true, true, true, true, true, true, true, true, true, true, true, true, true, true, true, true, true, true, true, true, true, true, true, true, true, true, true, true, true, true, true, true, true, true, true, true, true, true, true, true, true, true, true, true, true, true, true, true, true, true, true, true, true, true, true, true, true, true, true, true, true, true, true, true, true, true, true, true, true, true, true, true, true, true, true, true, true, true, true, true, true, true, true, true, true, true, true, true, true, true, true, true, true, true, true, true, true, true, true, true, true, true, true, true, true, true, true, true, true, true, true, true, true, true, true, true, true, true, true, true, true, true, true, true, true, true, true, true, true, true, true, true, true, true, true, true, true, true, true, true, true, true, true, true, true, true, true, true], [true, true, true, true, true, true, true, true, true, true, true, true, true, true, true, true, true, true, true, true, true, true, true, true, true, true, true, true, true, true, true, true, true, true, true, true, true, true, true, true, true, true, true, true, true, true, true, true, true, true, true, true, true, true, true, true, true, true, true, true, true, true, true, true, true, true, true, true, true, true, true, true, true, true, true, true, true, true, true, true, true, true, true, true, true, true, true, true, true, true, true, true, true, true, true, true, true, true, true, true, true, true, true, true, true, true, true, true, true, true, true, true, true, true, true, true, true, true, true, true, true, true, true, true, true, true, true, true, true, true, true, true, true, true, true, true, true, true, true, true, true, true, true, true, true, true, true, true, true, true, true, true, true, true, true, true, true, true, true, true, true, true, true, true, true, true, true, true, true, true, true, true, true, true, true, true, true, true, true, true, true, true, true, true, true, true, true, true], [true, true, true, true, true, true, true, true, true, true, true, true, true, true, true, true, true, true, true, true, true, true, true, true, true, true, true, true, true, true, true, true, true, true, true, true, true, true, true, true, true, true, true, true, true, true, true, true, true, true, true, true, true, true, true, true, true, true, true, true, true, true, true, true, true, true, true, true, true, true, true, true, true, true, true, true, true, true, true, true, true, true, true, true, true, true, true, true, true, true, true, true, true, true, true, true, true, true, true, true, true, true, true, true, true, true, true, true, true, true, true, true, true, true, true, true, true, true, true, true, true, true, true, true, true, true, true, true, true, true, true, true, true, true, true, true, true, true, true, true, true, true, true, true, true, true, true, true, true, true, true, true, true, true, true, true, true, true, true, true, true, true, true, true, true, true, true, true, true, true, true, true, true, true, true, true, true, true, true, true, true, true, true, true, true, true, true, true], [true, true, true, true, true, true, true, true, true, true, true, true, true, true, true, true, true, true, true, true, true, true, true, true, true, true, true, true, true, true, true, true, true, true, true, true, true, true, true, true, true, true, true, true, true, true, true, true, true, true, true, true, true, true, true, true, true, true, true, true, true, true, true, true, true, true, true, true, true, true, true, true, true, true, true, true, true, true, true, true, true, true, true, true, true, true, true, true, true, true, true, true, true, true, true, true, true, true, true, true, true, true, true, true, true, true, true, true, true, true, true, true, true, true, true, true, true, true, true, true, true, true, true, true, true, true, true, true, true, true, true, true, true, true, true, true, true, true, true, true, true, true, true, true, true, true, true, true, true, true, true, true, true, true, true, true, true, true, true, true, true, true, true, true, true, true, true, true, true, true, true, true, true, true, true, true, true, true, true, true, true, true, true, true, true, true, true, true], [true, true, true, true, true, true, true, true, true, true, true, true, true, true, true, true, true, true, true, true, true, true, true, true, true, true, true, true, true, true, true, true, true, true, true, true, true, true, true, true, true, true, true, true, true, true, true, true, true, true, true, true, true, true, true, true, true, true, true, true, true, true, true, true, true, true, true, true, true, true, true, true, true, true, true, true, true, true, true, true, true, true, true, true, true, true, true, true, true, true, true, true, true, true, true, true, true, true, true, true, true, true, true, true, true, true, true, true, true, true, true, true, true, true, true, true, true, true, true, true, true, true, true, true, true, true, true, true, true, true, true, true, true, true, true, true, true, true, true, true, true, true, true, true, true, true, true, true, true, true, true, true, true, true, true, true, true, true, true, true, true, true, true, true, true, true, true, true, true, true, true, true, true, true, true, true, true, true, true, true, true, true, true, true, true, true, true, true], [true, true, true, true, true, true, true, true, true, true, true, true, true, true, true, true, true, true, true, true, true, true, true, true, true, true, true, true, true, true, true, true, true, true, true, true, true, true, true, true, true, true, true, true, true, true, true, true, true, true, true, true, true, true, true, true, true, true, true, true, true, true, true, true, true, true, true, true, true, true, true, true, true, true, true, true, true, true, true, true, true, true, true, true, true, true, true, true, true, true, true, true, true, true, true, true, true, true, true, true, true, true, true, true, true, true, true, true, true, true, true, true, true, true, true, true, true, true, true, true, true, true, true, true, true, true, true, true, true, true, true, true, true, true, true, true, true, true, true, true, true, true, true, true, true, true, true, true, true, true, true, true, true, true, true, true, true, true, true, true, true, true, true, true, true, true, true, true, true, true, true, true, true, true, true, true, true, true, true, true, true, true, true, true, true, true, true, true], [true, true, true, true, true, true, true, true, true, true, true, true, true, true, true, true, true, true, true, true, true, true, true, true, true, true, true, true, true, true, true, true, true, true, true, true, true, true, true, true, true, true, true, true, true, true, true, true, true, true, true, true, true, true, true, true, true, true, true, true, true, true, true, true, true, true, true, true, true, true, true, true, true, true, true, true, true, true, true, true, true, true, true, true, true, true, true, true, true, true, true, true, true, true, true, true, true, true, true, true, true, true, true, true, true, true, true, true, true, true, true, true, true, true, true, true, true, true, true, true, true, true, true, true, true, true, true, true, true, true, true, true, true, true, true, true, true, true, true, true, true, true, true, true, true, true, true, true, true, true, true, true, true, true, true, true, true, true, true, true, true, true, true, true, true, true, true, true, true, true, true, true, true, true, true, true, true, true, true, true, true, true, true, true, true, true, true, true], [true, true, true, true, true, true, true, true, true, true, true, true, true, true, true, true, true, true, true, true, true, true, true, true, true, true, true, true, true, true, true, true, true, true, true, true, true, true, true, true, true, true, true, true, true, true, true, true, true, true, true, true, true, true, true, true, true, true, true, true, true, true, true, true, true, true, true, true, true, true, true, true, true, true, true, true, true, true, true, true, true, true, true, true, true, true, true, true, true, true, true, true, true, true, true, true, true, true, true, true, true, true, true, true, true, true, true, true, true, true, true, true, true, true, true, true, true, true, true, true, true, true, true, true, true, true, true, true, true, true, true, true, true, true, true, true, true, true, true, true, true, true, true, true, true, true, true, true, true, true, true, true, true, true, true, true, true, true, true, true, true, true, true, true, true, true, true, true, true, true, true, true, true, true, true, true, true, true, true, true, true, true, true, true, true, true, true, true], [true, true, true, true, true, true, true, true, true, true, true, true, true, true, true, true, true, true, true, true, true, true, true, true, true, true, true, true, true, true, true, true, true, true, true, true, true, true, true, true, true, true, true, true, true, true, true, true, true, true, true, true, true, true, true, true, true, true, true, true, true, true, true, true, true, true, true, true, true, true, true, true, true, true, true, true, true, true, true, true, true, true, true, true, true, true, true, true, true, true, true, true, true, true, true, true, true, true, true, true, true, true, true, true, true, true, true, true, true, true, true, true, true, true, true, true, true, true, true, true, true, true, true, true, true, true, true, true, true, true, true, true, true, true, true, true, true, true, true, true, true, true, true, true, true, true, true, true, true, true, true, true, true, true, true, true, true, true, true, true, true, true, true, true, true, true, true, true, true, true, true, true, true, true, true, true, true, true, true, true, true, true, true, true, true, true, true, true], [true, true, true, true, true, true, true, true, true, true, true, true, true, true, true, true, true, true, true, true, true, true, true, true, true, true, true, true, true, true, true, true, true, true, true, true, true, true, true, true, true, true, true, true, true, true, true, true, true, true, true, true, true, true, true, true, true, true, true, true, true, true, true, true, true, true, true, true, true, true, true, true, true, true, true, true, true, true, true, true, true, true, true, true, true, true, true, true, true, true, true, true, true, true, true, true, true, true, true, true, true, true, true, true, true, true, true, true, true, true, true, true, true, true, true, true, true, true, true, true, true, true, true, true, true, true, true, true, true, true, true, true, true, true, true, true, true, true, true, true, true, true, true, true, true, true, true, true, true, true, true, true, true, true, true, true, true, true, true, true, true, true, true, true, true, true, true, true, true, true, true, true, true, true, true, true, true, true, true, true, true, true, true, true, true, true, true, true], [true, true, true, true, true, true, true, true, true, true, true, true, true, true, true, true, true, true, true, true, true, true, true, true, true, true, true, true, true, true, true, true, true, true, true, true, true, true, true, true, true, true, true, true, true, true, true, true, true, true, true, true, true, true, true, true, true, true, true, true, true, true, true, true, true, true, true, true, true, true, true, true, true, true, true, true, true, true, true, true, true, true, true, true, true, true, true, true, true, true, true, true, true, true, true, true, true, true, true, true, true, true, true, true, true, true, true, true, true, true, true, true, true, true, true, true, true, true, true, true, true, true, true, true, true, true, true, true, true, true, true, true, true, true, true, true, true, true, true, true, true, true, true, true, true, true, true, true, true, true, true, true, true, true, true, true, true, true, true, true, true, true, true, true, true, true, true, true, true, true, true, true, true, true, true, true, true, true, true, true, true, true, true, true, true, true, true, true], [true, true, true, true, true, true, true, true, true, true, true, true, true, true, true, true, true, true, true, true, true, true, true, true, true, true, true, true, true, true, true, true, true, true, true, true, true, true, true, true, true, true, true, true, true, true, true, true, true, true, true, true, true, true, true, true, true, true, true, true, true, true, true, true, true, true, true, true, true, true, true, true, true, true, true, true, true, true, true, true, true, true, true, true, true, true, true, true, true, true, true, true, true, true, true, true, true, true, true, true, true, true, true, true, true, true, true, true, true, true, true, true, true, true, true, true, true, true, true, true, true, true, true, true, true, true, true, true, true, true, true, true, true, true, true, true, true, true, true, true, true, true, true, true, true, true, true, true, true, true, true, true, true, true, true, true, true, true, true, true, true, true, true, true, true, true, true, true, true, true, true, true, true, true, true, true, true, true, true, true, true, true, true, true, true, true, true, true], [true, true, true, true, true, true, true, true, true, true, true, true, true, true, true, true, true, true, true, true, true, true, true, true, true, true, true, true, true, true, true, true, true, true, true, true, true, true, true, true, true, true, true, true, true, true, true, true, true, true, true, true, true, true, true, true, true, true, true, true, true, true, true, true, true, true, true, true, true, true, true, true, true, true, true, true, true, true, true, true, true, true, true, true, true, true, true, true, true, true, true, true, true, true, true, true, true, true, true, true, true, true, true, true, true, true, true, true, true, true, true, true, true, true, true, true, true, true, true, true, true, true, true, true, true, true, true, true, true, true, true, true, true, true, true, true, true, true, true, true, true, true, true, true, true, true, true, true, true, true, true, true, true, true, true, true, true, true, true, true, true, true, true, true, true, true, true, true, true, true, true, true, true, true, true, true, true, true, true, true, true, true, true, true, true, true, true, true], [true, true, true, true, true, true, true, true, true, true, true, true, true, true, true, true, true, true, true, true, true, true, true, true, true, true, true, true, true, true, true, true, true, true, true, true, true, true, true, true, true, true, true, true, true, true, true, true, true, true, true, true, true, true, true, true, true, true, true, true, true, true, true, true, true, true, true, true, true, true, true, true, true, true, true, true, true, true, true, true, true, true, true, true, true, true, true, true, true, true, true, true, true, true, true, true, true, true, true, true, true, true, true, true, true, true, true, true, true, true, true, true, true, true, true, true, true, true, true, true, true, true, true, true, true, true, true, true, true, true, true, true, true, true, true, true, true, true, true, true, true, true, true, true, true, true, true, true, true, true, true, true, true, true, true, true, true, true, true, true, true, true, true, true, true, true, true, true, true, true, true, true, true, true, true, true, true, true, true, true, true, true, true, true, true, true, true, true], [true, true, true, true, true, true, true, true, true, true, true, true, true, true, true, true, true, true, true, true, true, true, true, true, true, true, true, true, true, true, true, true, true, true, true, true, true, true, true, true, true, true, true, true, true, true, true, true, true, true, true, true, true, true, true, true, true, true, true, true, true, true, true, true, true, true, true, true, true, true, true, true, true, true, true, true, true, true, true, true, true, true, true, true, true, true, true, true, true, true, true, true, true, true, true, true, true, true, true, true, true, true, true, true, true, true, true, true, true, true, true, true, true, true, true, true, true, true, true, true, true, true, true, true, true, true, true, true, true, true, true, true, true, true, true, true, true, true, true, true, true, true, true, true, true, true, true, true, true, true, true, true, true, true, true, true, true, true, true, true, true, true, true, true, true, true, true, true, true, true, true, true, true, true, true, true, true, true, true, true, true, true, true, true, true, true, true, true], [true, true, true, true, true, true, true, true, true, true, true, true, true, true, true, true, true, true, true, true, true, true, true, true, true, true, true, true, true, true, true, true, true, true, true, true, true, true, true, true, true, true, true, true, true, true, true, true, true, true, true, true, true, true, true, true, true, true, true, true, true, true, true, true, true, true, true, true, true, true, true, true, true, true, true, true, true, true, true, true, true, true, true, true, true, true, true, true, true, true, true, true, true, true, true, true, true, true, true, true, true, true, true, true, true, true, true, true, true, true, true, true, true, true, true, true, true, true, true, true, true, true, true, true, true, true, true, true, true, true, true, true, true, true, true, true, true, true, true, true, true, true, true, true, true, true, true, true, true, true, true, true, true, true, true, true, true, true, true, true, true, true, true, true, true, true, true, true, true, true, true, true, true, true, true, true, true, true, true, true, true, true, true, true, true, true, true, true], [true, true, true, true, true, true, true, true, true, true, true, true, true, true, true, true, true, true, true, true, true, true, true, true, true, true, true, true, true, true, true, true, true, true, true, true, true, true, true, true, true, true, true, true, true, true, true, true, true, true, true, true, true, true, true, true, true, true, true, true, true, true, true, true, true, true, true, true, true, true, true, true, true, true, true, true, true, true, true, true, true, true, true, true, true, true, true, true, true, true, true, true, true, true, true, true, true, true, true, true, true, true, true, true, true, true, true, true, true, true, true, true, true, true, true, true, true, true, true, true, true, true, true, true, true, true, true, true, true, true, true, true, true, true, true, true, true, true, true, true, true, true, true, true, true, true, true, true, true, true, true, true, true, true, true, true, true, true, true, true, true, true, true, true, true, true, true, true, true, true, true, true, true, true, true, true, true, true, true, true, true, true, true, true, true, true, true, true], [true, true, true, true, true, true, true, true, true, true, true, true, true, true, true, true, true, true, true, true, true, true, true, true, true, true, true, true, true, true, true, true, true, true, true, true, true, true, true, true, true, true, true, true, true, true, true, true, true, true, true, true, true, true, true, true, true, true, true, true, true, true, true, true, true, true, true, true, true, true, true, true, true, true, true, true, true, true, true, true, true, true, true, true, true, true, true, true, true, true, true, true, true, true, true, true, true, true, true, true, true, true, true, true, true, true, true, true, true, true, true, true, true, true, true, true, true, true, true, true, true, true, true, true, true, true, true, true, true, true, true, true, true, true, true, true, true, true, true, true, true, true, true, true, true, true, true, true, true, true, true, true, true, true, true, true, true, true, true, true, true, true, true, true, true, true, true, true, true, true, true, true, true, true, true, true, true, true, true, true, true, true, true, true, true, true, true, true], [true, true, true, true, true, true, true, true, true, true, true, true, true, true, true, true, true, true, true, true, true, true, true, true, true, true, true, true, true, true, true, true, true, true, true, true, true, true, true, true, true, true, true, true, true, true, true, true, true, true, true, true, true, true, true, true, true, true, true, true, true, true, true, true, true, true, true, true, true, true, true, true, true, true, true, true, true, true, true, true, true, true, true, true, true, true, true, true, true, true, true, true, true, true, true, true, true, true, true, true, true, true, true, true, true, true, true, true, true, true, true, true, true, true, true, true, true, true, true, true, true, true, true, true, true, true, true, true, true, true, true, true, true, true, true, true, true, true, true, true, true, true, true, true, true, true, true, true, true, true, true, true, true, true, true, true, true, true, true, true, true, true, true, true, true, true, true, true, true, true, true, true, true, true, true, true, true, true, true, true, true, true, true, true, true, true, true, true], [true, true, true, true, true, true, true, true, true, true, true, true, true, true, true, true, true, true, true, true, true, true, true, true, true, true, true, true, true, true, true, true, true, true, true, true, true, true, true, true, true, true, true, true, true, true, true, true, true, true, true, true, true, true, true, true, true, true, true, true, true, true, true, true, true, true, true, true, true, true, true, true, true, true, true, true, true, true, true, true, true, true, true, true, true, true, true, true, true, true, true, true, true, true, true, true, true, true, true, true, true, true, true, true, true, true, true, true, true, true, true, true, true, true, true, true, true, true, true, true, true, true, true, true, true, true, true, true, true, true, true, true, true, true, true, true, true, true, true, true, true, true, true, true, true, true, true, true, true, true, true, true, true, true, true, true, true, true, true, true, true, true, true, true, true, true, true, true, true, true, true, true, true, true, true, true, true, true, true, true, true, true, true, true, true, true, true, true], [true, true, true, true, true, true, true, true, true, true, true, true, true, true, true, true, true, true, true, true, true, true, true, true, true, true, true, true, true, true, true, true, true, true, true, true, true, true, true, true, true, true, true, true, true, true, true, true, true, true, true, true, true, true, true, true, true, true, true, true, true, true, true, true, true, true, true, true, true, true, true, true, true, true, true, true, true, true, true, true, true, true, true, true, true, true, true, true, true, true, true, true, true, true, true, true, true, true, true, true, true, true, true, true, true, true, true, true, true, true, true, true, true, true, true, true, true, true, true, true, true, true, true, true, true, true, true, true, true, true, true, true, true, true, true, true, true, true, true, true, true, true, true, true, true, true, true, true, true, true, true, true, true, true, true, true, true, true, true, true, true, true, true, true, true, true, true, true, true, true, true, true, true, true, true, true, true, true, true, true, true, true, true, true, true, true, true, true], [true, true, true, true, true, true, true, true, true, true, true, true, true, true, true, true, true, true, true, true, true, true, true, true, true, true, true, true, true, true, true, true, true, true, true, true, true, true, true, true, true, true, true, true, true, true, true, true, true, true, true, true, true, true, true, true, true, true, true, true, true, true, true, true, true, true, true, true, true, true, true, true, true, true, true, true, true, true, true, true, true, true, true, true, true, true, true, true, true, true, true, true, true, true, true, true, true, true, true, true, true, true, true, true, true, true, true, true, true, true, true, true, true, true, true, true, true, true, true, true, true, true, true, true, true, true, true, true, true, true, true, true, true, true, true, true, true, true, true, true, true, true, true, true, true, true, true, true, true, true, true, true, true, true, true, true, true, true, true, true, true, true, true, true, true, true, true, true, true, true, true, true, true, true, true, true, true, true, true, true, true, true, true, true, true, true, true, true], [true, true, true, true, true, true, true, true, true, true, true, true, true, true, true, true, true, true, true, true, true, true, true, true, true, true, true, true, true, true, true, true, true, true, true, true, true, true, true, true, true, true, true, true, true, true, true, true, true, true, true, true, true, true, true, true, true, true, true, true, true, true, true, true, true, true, true, true, true, true, true, true, true, true, true, true, true, true, true, true, true, true, true, true, true, true, true, true, true, true, true, true, true, true, true, true, true, true, true, true, true, true, true, true, true, true, true, true, true, true, true, true, true, true, true, true, true, true, true, true, true, true, true, true, true, true, true, true, true, true, true, true, true, true, true, true, true, true, true, true, true, true, true, true, true, true, true, true, true, true, true, true, true, true, true, true, true, true, true, true, true, true, true, true, true, true, true, true, true, true, true, true, true, true, true, true, true, true, true, true, true, true, true, true, true, true, true, true], [true, true, true, true, true, true, true, true, true, true, true, true, true, true, true, true, true, true, true, true, true, true, true, true, true, true, true, true, true, true, true, true, true, true, true, true, true, true, true, true, true, true, true, true, true, true, true, true, true, true, true, true, true, true, true, true, true, true, true, true, true, true, true, true, true, true, true, true, true, true, true, true, true, true, true, true, true, true, true, true, true, true, true, true, true, true, true, true, true, true, true, true, true, true, true, true, true, true, true, true, true, true, true, true, true, true, true, true, true, true, true, true, true, true, true, true, true, true, true, true, true, true, true, true, true, true, true, true, true, true, true, true, true, true, true, true, true, true, true, true, true, true, true, true, true, true, true, true, true, true, true, true, true, true, true, true, true, true, true, true, true, true, true, true, true, true, true, true, true, true, true, true, true, true, true, true, true, true, true, true, true, true, true, true, true, true, true, true], [true, true, true, true, true, true, true, true, true, true, true, true, true, true, true, true, true, true, true, true, true, true, true, true, true, true, true, true, true, true, true, true, true, true, true, true, true, true, true, true, true, true, true, true, true, true, true, true, true, true, true, true, true, true, true, true, true, true, true, true, true, true, true, true, true, true, true, true, true, true, true, true, true, true, true, true, true, true, true, true, true, true, true, true, true, true, true, true, true, true, true, true, true, true, true, true, true, true, true, true, true, true, true, true, true, true, true, true, true, true, true, true, true, true, true, true, true, true, true, true, true, true, true, true, true, true, true, true, true, true, true, true, true, true, true, true, true, true, true, true, true, true, true, true, true, true, true, true, true, true, true, true, true, true, true, true, true, true, true, true, true, true, true, true, true, true, true, true, true, true, true, true, true, true, true, true, true, true, true, true, true, true, true, true, true, true, true, true], [true, true, true, true, true, true, true, true, true, true, true, true, true, true, true, true, true, true, true, true, true, true, true, true, true, true, true, true, true, true, true, true, true, true, true, true, true, true, true, true, true, true, true, true, true, true, true, true, true, true, true, true, true, true, true, true, true, true, true, true, true, true, true, true, true, true, true, true, true, true, true, true, true, true, true, true, true, true, true, true, true, true, true, true, true, true, true, true, true, true, true, true, true, true, true, true, true, true, true, true, true, true, true, true, true, true, true, true, true, true, true, true, true, true, true, true, true, true, true, true, true, true, true, true, true, true, true, true, true, true, true, true, true, true, true, true, true, true, true, true, true, true, true, true, true, true, true, true, true, true, true, true, true, true, true, true, true, true, true, true, true, true, true, true, true, true, true, true, true, true, true, true, true, true, true, true, true, true, true, true, true, true, true, true, true, true, true, true], [true, true, true, true, true, true, true, true, true, true, true, true, true, true, true, true, true, true, true, true, true, true, true, true, true, true, true, true, true, true, true, true, true, true, true, true, true, true, true, true, true, true, true, true, true, true, true, true, true, true, true, true, true, true, true, true, true, true, true, true, true, true, true, true, true, true, true, true, true, true, true, true, true, true, true, true, true, true, true, true, true, true, true, true, true, true, true, true, true, true, true, true, true, true, true, true, true, true, true, true, true, true, true, true, true, true, true, true, true, true, true, true, true, true, true, true, true, true, true, true, true, true, true, true, true, true, true, true, true, true, true, true, true, true, true, true, true, true, true, true, true, true, true, true, true, true, true, true, true, true, true, true, true, true, true, true, true, true, true, true, true, true, true, true, true, true, true, true, true, true, true, true, true, true, true, true, true, true, true, true, true, true, true, true, true, true, true, true], [true, true, true, true, true, true, true, true, true, true, true, true, true, true, true, true, true, true, true, true, true, true, true, true, true, true, true, true, true, true, true, true, true, true, true, true, true, true, true, true, true, true, true, true, true, true, true, true, true, true, true, true, true, true, true, true, true, true, true, true, true, true, true, true, true, true, true, true, true, true, true, true, true, true, true, true, true, true, true, true, true, true, true, true, true, true, true, true, true, true, true, true, true, true, true, true, true, true, true, true, true, true, true, true, true, true, true, true, true, true, true, true, true, true, true, true, true, true, true, true, true, true, true, true, true, true, true, true, true, true, true, true, true, true, true, true, true, true, true, true, true, true, true, true, true, true, true, true, true, true, true, true, true, true, true, true, true, true, true, true, true, true, true, true, true, true, true, true, true, true, true, true, true, true, true, true, true, true, true, true, true, true, true, true, true, true, true, true], [true, true, true, true, true, true, true, true, true, true, true, true, true, true, true, true, true, true, true, true, true, true, true, true, true, true, true, true, true, true, true, true, true, true, true, true, true, true, true, true, true, true, true, true, true, true, true, true, true, true, true, true, true, true, true, true, true, true, true, true, true, true, true, true, true, true, true, true, true, true, true, true, true, true, true, true, true, true, true, true, true, true, true, true, true, true, true, true, true, true, true, true, true, true, true, true, true, true, true, true, true, true, true, true, true, true, true, true, true, true, true, true, true, true, true, true, true, true, true, true, true, true, true, true, true, true, true, true, true, true, true, true, true, true, true, true, true, true, true, true, true, true, true, true, true, true, true, true, true, true, true, true, true, true, true, true, true, true, true, true, true, true, true, true, true, true, true, true, true, true, true, true, true, true, true, true, true, true, true, true, true, true, true, true, true, true, true, true], [true, true, true, true, true, true, true, true, true, true, true, true, true, true, true, true, true, true, true, true, true, true, true, true, true, true, true, true, true, true, true, true, true, true, true, true, true, true, true, true, true, true, true, true, true, true, true, true, true, true, true, true, true, true, true, true, true, true, true, true, true, true, true, true, true, true, true, true, true, true, true, true, true, true, true, true, true, true, true, true, true, true, true, true, true, true, true, true, true, true, true, true, true, true, true, true, true, true, true, true, true, true, true, true, true, true, true, true, true, true, true, true, true, true, true, true, true, true, true, true, true, true, true, true, true, true, true, true, true, true, true, true, true, true, true, true, true, true, true, true, true, true, true, true, true, true, true, true, true, true, true, true, true, true, true, true, true, true, true, true, true, true, true, true, true, true, true, true, true, true, true, true, true, true, true, true, true, true, true, true, true, true, true, true, true, true, true, true], [true, true, true, true, true, true, true, true, true, true, true, true, true, true, true, true, true, true, true, true, true, true, true, true, true, true, true, true, true, true, true, true, true, true, true, true, true, true, true, true, true, true, true, true, true, true, true, true, true, true, true, true, true, true, true, true, true, true, true, true, true, true, true, true, true, true, true, true, true, true, true, true, true, true, true, true, true, true, true, true, true, true, true, true, true, true, true, true, true, true, true, true, true, true, true, true, true, true, true, true, true, true, true, true, true, true, true, true, true, true, true, true, true, true, true, true, true, true, true, true, true, true, true, true, true, true, true, true, true, true, true, true, true, true, true, true, true, true, true, true, true, true, true, true, true, true, true, true, true, true, true, true, true, true, true, true, true, true, true, true, true, true, true, true, true, true, true, true, true, true, true, true, true, true, true, true, true, true, true, true, true, true, true, true, true, true, true, true], [true, true, true, true, true, true, true, true, true, true, true, true, true, true, true, true, true, true, true, true, true, true, true, true, true, true, true, true, true, true, true, true, true, true, true, true, true, true, true, true, true, true, true, true, true, true, true, true, true, true, true, true, true, true, true, true, true, true, true, true, true, true, true, true, true, true, true, true, true, true, true, true, true, true, true, true, true, true, true, true, true, true, true, true, true, true, true, true, true, true, true, true, true, true, true, true, true, true, true, true, true, true, true, true, true, true, true, true, true, true, true, true, true, true, true, true, true, true, true, true, true, true, true, true, true, true, true, true, true, true, true, true, true, true, true, true, true, true, true, true, true, true, true, true, true, true, true, true, true, true, true, true, true, true, true, true, true, true, true, true, true, true, true, true, true, true, true, true, true, true, true, true, true, true, true, true, true, true, true, true, true, true, true, true, true, true, true, true], [true, true, true, true, true, true, true, true, true, true, true, true, true, true, true, true, true, true, true, true, true, true, true, true, true, true, true, true, true, true, true, true, true, true, true, true, true, true, true, true, true, true, true, true, true, true, true, true, true, true, true, true, true, true, true, true, true, true, true, true, true, true, true, true, true, true, true, true, true, true, true, true, true, true, true, true, true, true, true, true, true, true, true, true, true, true, true, true, true, true, true, true, true, true, true, true, true, true, true, true, true, true, true, true, true, true, true, true, true, true, true, true, true, true, true, true, true, true, true, true, true, true, true, true, true, true, true, true, true, true, true, true, true, true, true, true, true, true, true, true, true, true, true, true, true, true, true, true, true, true, true, true, true, true, true, true, true, true, true, true, true, true, true, true, true, true, true, true, true, true, true, true, true, true, true, true, true, true, true, true, true, true, true, true, true, true, true, true], [true, true, true, true, true, true, true, true, true, true, true, true, true, true, true, true, true, true, true, true, true, true, true, true, true, true, true, true, true, true, true, true, true, true, true, true, true, true, true, true, true, true, true, true, true, true, true, true, true, true, true, true, true, true, true, true, true, true, true, true, true, true, true, true, true, true, true, true, true, true, true, true, true, true, true, true, true, true, true, true, true, true, true, true, true, true, true, true, true, true, true, true, true, true, true, true, true, true, true, true, true, true, true, true, true, true, true, true, true, true, true, true, true, true, true, true, true, true, true, true, true, true, true, true, true, true, true, true, true, true, true, true, true, true, true, true, true, true, true, true, true, true, true, true, true, true, true, true, true, true, true, true, true, true, true, true, true, true, true, true, true, true, true, true, true, true, true, true, true, true, true, true, true, true, true, true, true, true, true, true, true, true, true, true, true, true, true, true], [true, true, true, true, true, true, true, true, true, true, true, true, true, true, true, true, true, true, true, true, true, true, true, true, true, true, true, true, true, true, true, true, true, true, true, true, true, true, true, true, true, true, true, true, true, true, true, true, true, true, true, true, true, true, true, true, true, true, true, true, true, true, true, true, true, true, true, true, true, true, true, true, true, true, true, true, true, true, true, true, true, true, true, true, true, true, true, true, true, true, true, true, true, true, true, true, true, true, true, true, true, true, true, true, true, true, true, true, true, true, true, true, true, true, true, true, true, true, true, true, true, true, true, true, true, true, true, true, true, true, true, true, true, true, true, true, true, true, true, true, true, true, true, true, true, true, true, true, true, true, true, true, true, true, true, true, true, true, true, true, true, true, true, true, true, true, true, true, true, true, true, true, true, true, true, true, true, true, true, true, true, true, true, true, true, true, true, true], [true, true, true, true, true, true, true, true, true, true, true, true, true, true, true, true, true, true, true, true, true, true, true, true, true, true, true, true, true, true, true, true, true, true, true, true, true, true, true, true, true, true, true, true, true, true, true, true, true, true, true, true, true, true, true, true, true, true, true, true, true, true, true, true, true, true, true, true, true, true, true, true, true, true, true, true, true, true, true, true, true, true, true, true, true, true, true, true, true, true, true, true, true, true, true, true, true, true, true, true, true, true, true, true, true, true, true, true, true, true, true, true, true, true, true, true, true, true, true, true, true, true, true, true, true, true, true, true, true, true, true, true, true, true, true, true, true, true, true, true, true, true, true, true, true, true, true, true, true, true, true, true, true, true, true, true, true, true, true, true, true, true, true, true, true, true, true, true, true, true, true, true, true, true, true, true, true, true, true, true, true, true, true, true, true, true, true, true], [true, true, true, true, true, true, true, true, true, true, true, true, true, true, true, true, true, true, true, true, true, true, true, true, true, true, true, true, true, true, true, true, true, true, true, true, true, true, true, true, true, true, true, true, true, true, true, true, true, true, true, true, true, true, true, true, true, true, true, true, true, true, true, true, true, true, true, true, true, true, true, true, true, true, true, true, true, true, true, true, true, true, true, true, true, true, true, true, true, true, true, true, true, true, true, true, true, true, true, true, true, true, true, true, true, true, true, true, true, true, true, true, true, true, true, true, true, true, true, true, true, true, true, true, true, true, true, true, true, true, true, true, true, true, true, true, true, true, true, true, true, true, true, true, true, true, true, true, true, true, true, true, true, true, true, true, true, true, true, true, true, true, true, true, true, true, true, true, true, true, true, true, true, true, true, true, true, true, true, true, true, true, true, true, true, true, true, true], [true, true, true, true, true, true, true, true, true, true, true, true, true, true, true, true, true, true, true, true, true, true, true, true, true, true, true, true, true, true, true, true, true, true, true, true, true, true, true, true, true, true, true, true, true, true, true, true, true, true, true, true, true, true, true, true, true, true, true, true, true, true, true, true, true, true, true, true, true, true, true, true, true, true, true, true, true, true, true, true, true, true, true, true, true, true, true, true, true, true, true, true, true, true, true, true, true, true, true, true, true, true, true, true, true, true, true, true, true, true, true, true, true, true, true, true, true, true, true, true, true, true, true, true, true, true, true, true, true, true, true, true, true, true, true, true, true, true, true, true, true, true, true, true, true, true, true, true, true, true, true, true, true, true, true, true, true, true, true, true, true, true, true, true, true, true, true, true, true, true, true, true, true, true, true, true, true, true, true, true, true, true, true, true, true, true, true, true], [true, true, true, true, true, true, true, true, true, true, true, true, true, true, true, true, true, true, true, true, true, true, true, true, true, true, true, true, true, true, true, true, true, true, true, true, true, true, true, true, true, true, true, true, true, true, true, true, true, true, true, true, true, true, true, true, true, true, true, true, true, true, true, true, true, true, true, true, true, true, true, true, true, true, true, true, true, true, true, true, true, true, true, true, true, true, true, true, true, true, true, true, true, true, true, true, true, true, true, true, true, true, true, true, true, true, true, true, true, true, true, true, true, true, true, true, true, true, true, true, true, true, true, true, true, true, true, true, true, true, true, true, true, true, true, true, true, true, true, true, true, true, true, true, true, true, true, true, true, true, true, true, true, true, true, true, true, true, true, true, true, true, true, true, true, true, true, true, true, true, true, true, true, true, true, true, true, true, true, true, true, true, true, true, true, true, true, true], [true, true, true, true, true, true, true, true, true, true, true, true, true, true, true, true, true, true, true, true, true, true, true, true, true, true, true, true, true, true, true, true, true, true, true, true, true, true, true, true, true, true, true, true, true, true, true, true, true, true, true, true, true, true, true, true, true, true, true, true, true, true, true, true, true, true, true, true, true, true, true, true, true, true, true, true, true, true, true, true, true, true, true, true, true, true, true, true, true, true, true, true, true, true, true, true, true, true, true, true, true, true, true, true, true, true, true, true, true, true, true, true, true, true, true, true, true, true, true, true, true, true, true, true, true, true, true, true, true, true, true, true, true, true, true, true, true, true, true, true, true, true, true, true, true, true, true, true, true, true, true, true, true, true, true, true, true, true, true, true, true, true, true, true, true, true, true, true, true, true, true, true, true, true, true, true, true, true, true, true, true, true, true, true, true, true, true, true], [true, true, true, true, true, true, true, true, true, true, true, true, true, true, true, true, true, true, true, true, true, true, true, true, true, true, true, true, true, true, true, true, true, true, true, true, true, true, true, true, true, true, true, true, true, true, true, true, true, true, true, true, true, true, true, true, true, true, true, true, true, true, true, true, true, true, true, true, true, true, true, true, true, true, true, true, true, true, true, true, true, true, true, true, true, true, true, true, true, true, true, true, true, true, true, true, true, true, true, true, true, true, true, true, true, true, true, true, true, true, true, true, true, true, true, true, true, true, true, true, true, true, true, true, true, true, true, true, true, true, true, true, true, true, true, true, true, true, true, true, true, true, true, true, true, true, true, true, true, true, true, true, true, true, true, true, true, true, true, true, true, true, true, true, true, true, true, true, true, true, true, true, true, true, true, true, true, true, true, true, true, true, true, true, true, true, true, true], [true, true, true, true, true, true, true, true, true, true, true, true, true, true, true, true, true, true, true, true, true, true, true, true, true, true, true, true, true, true, true, true, true, true, true, true, true, true, true, true, true, true, true, true, true, true, true, true, true, true, true, true, true, true, true, true, true, true, true, true, true, true, true, true, true, true, true, true, true, true, true, true, true, true, true, true, true, true, true, true, true, true, true, true, true, true, true, true, true, true, true, true, true, true, true, true, true, true, true, true, true, true, true, true, true, true, true, true, true, true, true, true, true, true, true, true, true, true, true, true, true, true, true, true, true, true, true, true, true, true, true, true, true, true, true, true, true, true, true, true, true, true, true, true, true, true, true, true, true, true, true, true, true, true, true, true, true, true, true, true, true, true, true, true, true, true, true, true, true, true, true, true, true, true, true, true, true, true, true, true, true, true, true, true, true, true, true, true], [true, true, true, true, true, true, true, true, true, true, true, true, true, true, true, true, true, true, true, true, true, true, true, true, true, true, true, true, true, true, true, true, true, true, true, true, true, true, true, true, true, true, true, true, true, true, true, true, true, true, true, true, true, true, true, true, true, true, true, true, true, true, true, true, true, true, true, true, true, true, true, true, true, true, true, true, true, true, true, true, true, true, true, true, true, true, true, true, true, true, true, true, true, true, true, true, true, true, true, true, true, true, true, true, true, true, true, true, true, true, true, true, true, true, true, true, true, true, true, true, true, true, true, true, true, true, true, true, true, true, true, true, true, true, true, true, true, true, true, true, true, true, true, true, true, true, true, true, true, true, true, true, true, true, true, true, true, true, true, true, true, true, true, true, true, true, true, true, true, true, true, true, true, true, true, true, true, true, true, true, true, true, true, true, true, true, true, true], [true, true, true, true, true, true, true, true, true, true, true, true, true, true, true, true, true, true, true, true, true, true, true, true, true, true, true, true, true, true, true, true, true, true, true, true, true, true, true, true, true, true, true, true, true, true, true, true, true, true, true, true, true, true, true, true, true, true, true, true, true, true, true, true, true, true, true, true, true, true, true, true, true, true, true, true, true, true, true, true, true, true, true, true, true, true, true, true, true, true, true, true, true, true, true, true, true, true, true, true, true, true, true, true, true, true, true, true, true, true, true, true, true, true, true, true, true, true, true, true, true, true, true, true, true, true, true, true, true, true, true, true, true, true, true, true, true, true, true, true, true, true, true, true, true, true, true, true, true, true, true, true, true, true, true, true, true, true, true, true, true, true, true, true, true, true, true, true, true, true, true, true, true, true, true, true, true, true, true, true, true, true, true, true, true, true, true, true], [true, true, true, true, true, true, true, true, true, true, true, true, true, true, true, true, true, true, true, true, true, true, true, true, true, true, true, true, true, true, true, true, true, true, true, true, true, true, true, true, true, true, true, true, true, true, true, true, true, true, true, true, true, true, true, true, true, true, true, true, true, true, true, true, true, true, true, true, true, true, true, true, true, true, true, true, true, true, true, true, true, true, true, true, true, true, true, true, true, true, true, true, true, true, true, true, true, true, true, true, true, true, true, true, true, true, true, true, true, true, true, true, true, true, true, true, true, true, true, true, true, true, true, true, true, true, true, true, true, true, true, true, true, true, true, true, true, true, true, true, true, true, true, true, true, true, true, true, true, true, true, true, true, true, true, true, true, true, true, true, true, true, true, true, true, true, true, true, true, true, true, true, true, true, true, true, true, true, true, true, true, true, true, true, true, true, true, true], [true, true, true, true, true, true, true, true, true, true, true, true, true, true, true, true, true, true, true, true, true, true, true, true, true, true, true, true, true, true, true, true, true, true, true, true, true, true, true, true, true, true, true, true, true, true, true, true, true, true, true, true, true, true, true, true, true, true, true, true, true, true, true, true, true, true, true, true, true, true, true, true, true, true, true, true, true, true, true, true, true, true, true, true, true, true, true, true, true, true, true, true, true, true, true, true, true, true, true, true, true, true, true, true, true, true, true, true, true, true, true, true, true, true, true, true, true, true, true, true, true, true, true, true, true, true, true, true, true, true, true, true, true, true, true, true, true, true, true, true, true, true, true, true, true, true, true, true, true, true, true, true, true, true, true, true, true, true, true, true, true, true, true, true, true, true, true, true, true, true, true, true, true, true, true, true, true, true, true, true, true, true, true, true, true, true, true, true], [true, true, true, true, true, true, true, true, true, true, true, true, true, true, true, true, true, true, true, true, true, true, true, true, true, true, true, true, true, true, true, true, true, true, true, true, true, true, true, true, true, true, true, true, true, true, true, true, true, true, true, true, true, true, true, true, true, true, true, true, true, true, true, true, true, true, true, true, true, true, true, true, true, true, true, true, true, true, true, true, true, true, true, true, true, true, true, true, true, true, true, true, true, true, true, true, true, true, true, true, true, true, true, true, true, true, true, true, true, true, true, true, true, true, true, true, true, true, true, true, true, true, true, true, true, true, true, true, true, true, true, true, true, true, true, true, true, true, true, true, true, true, true, true, true, true, true, true, true, true, true, true, true, true, true, true, true, true, true, true, true, true, true, true, true, true, true, true, true, true, true, true, true, true, true, true, true, true, true, true, true, true, true, true, true, true, true, true], [true, true, true, true, true, true, true, true, true, true, true, true, true, true, true, true, true, true, true, true, true, true, true, true, true, true, true, true, true, true, true, true, true, true, true, true, true, true, true, true, true, true, true, true, true, true, true, true, true, true, true, true, true, true, true, true, true, true, true, true, true, true, true, true, true, true, true, true, true, true, true, true, true, true, true, true, true, true, true, true, true, true, true, true, true, true, true, true, true, true, true, true, true, true, true, true, true, true, true, true, true, true, true, true, true, true, true, true, true, true, true, true, true, true, true, true, true, true, true, true, true, true, true, true, true, true, true, true, true, true, true, true, true, true, true, true, true, true, true, true, true, true, true, true, true, true, true, true, true, true, true, true, true, true, true, true, true, true, true, true, true, true, true, true, true, true, true, true, true, true, true, true, true, true, true, true, true, true, true, true, true, true, true, true, true, true, true, true], [true, true, true, true, true, true, true, true, true, true, true, true, true, true, true, true, true, true, true, true, true, true, true, true, true, true, true, true, true, true, true, true, true, true, true, true, true, true, true, true, true, true, true, true, true, true, true, true, true, true, true, true, true, true, true, true, true, true, true, true, true, true, true, true, true, true, true, true, true, true, true, true, true, true, true, true, true, true, true, true, true, true, true, true, true, true, true, true, true, true, true, true, true, true, true, true, true, true, true, true, true, true, true, true, true, true, true, true, true, true, true, true, true, true, true, true, true, true, true, true, true, true, true, true, true, true, true, true, true, true, true, true, true, true, true, true, true, true, true, true, true, true, true, true, true, true, true, true, true, true, true, true, true, true, true, true, true, true, true, true, true, true, true, true, true, true, true, true, true, true, true, true, true, true, true, true, true, true, true, true, true, true, true, true, true, true, true, true], [true, true, true, true, true, true, true, true, true, true, true, true, true, true, true, true, true, true, true, true, true, true, true, true, true, true, true, true, true, true, true, true, true, true, true, true, true, true, true, true, true, true, true, true, true, true, true, true, true, true, true, true, true, true, true, true, true, true, true, true, true, true, true, true, true, true, true, true, true, true, true, true, true, true, true, true, true, true, true, true, true, true, true, true, true, true, true, true, true, true, true, true, true, true, true, true, true, true, true, true, true, true, true, true, true, true, true, true, true, true, true, true, true, true, true, true, true, true, true, true, true, true, true, true, true, true, true, true, true, true, true, true, true, true, true, true, true, true, true, true, true, true, true, true, true, true, true, true, true, true, true, true, true, true, true, true, true, true, true, true, true, true, true, true, true, true, true, true, true, true, true, true, true, true, true, true, true, true, true, true, true, true, true, true, true, true, true, true], [true, true, true, true, true, true, true, true, true, true, true, true, true, true, true, true, true, true, true, true, true, true, true, true, true, true, true, true, true, true, true, true, true, true, true, true, true, true, true, true, true, true, true, true, true, true, true, true, true, true, true, true, true, true, true, true, true, true, true, true, true, true, true, true, true, true, true, true, true, true, true, true, true, true, true, true, true, true, true, true, true, true, true, true, true, true, true, true, true, true, true, true, true, true, true, true, true, true, true, true, true, true, true, true, true, true, true, true, true, true, true, true, true, true, true, true, true, true, true, true, true, true, true, true, true, true, true, true, true, true, true, true, true, true, true, true, true, true, true, true, true, true, true, true, true, true, true, true, true, true, true, true, true, true, true, true, true, true, true, true, true, true, true, true, true, true, true, true, true, true, true, true, true, true, true, true, true, true, true, true, true, true, true, true, true, true, true, true], [true, true, true, true, true, true, true, true, true, true, true, true, true, true, true, true, true, true, true, true, true, true, true, true, true, true, true, true, true, true, true, true, true, true, true, true, true, true, true, true, true, true, true, true, true, true, true, true, true, true, true, true, true, true, true, true, true, true, true, true, true, true, true, true, true, true, true, true, true, true, true, true, true, true, true, true, true, true, true, true, true, true, true, true, true, true, true, true, true, true, true, true, true, true, true, true, true, true, true, true, true, true, true, true, true, true, true, true, true, true, true, true, true, true, true, true, true, true, true, true, true, true, true, true, true, true, true, true, true, true, true, true, true, true, true, true, true, true, true, true, true, true, true, true, true, true, true, true, true, true, true, true, true, true, true, true, true, true, true, true, true, true, true, true, true, true, true, true, true, true, true, true, true, true, true, true, true, true, true, true, true, true, true, true, true, true, true, true], [true, true, true, true, true, true, true, true, true, true, true, true, true, true, true, true, true, true, true, true, true, true, true, true, true, true, true, true, true, true, true, true, true, true, true, true, true, true, true, true, true, true, true, true, true, true, true, true, true, true, true, true, true, true, true, true, true, true, true, true, true, true, true, true, true, true, true, true, true, true, true, true, true, true, true, true, true, true, true, true, true, true, true, true, true, true, true, true, true, true, true, true, true, true, true, true, true, true, true, true, true, true, true, true, true, true, true, true, true, true, true, true, true, true, true, true, true, true, true, true, true, true, true, true, true, true, true, true, true, true, true, true, true, true, true, true, true, true, true, true, true, true, true, true, true, true, true, true, true, true, true, true, true, true, true, true, true, true, true, true, true, true, true, true, true, true, true, true, true, true, true, true, true, true, true, true, true, true, true, true, true, true, true, true, true, true, true, true], [true, true, true, true, true, true, true, true, true, true, true, true, true, true, true, true, true, true, true, true, true, true, true, true, true, true, true, true, true, true, true, true, true, true, true, true, true, true, true, true, true, true, true, true, true, true, true, true, true, true, true, true, true, true, true, true, true, true, true, true, true, true, true, true, true, true, true, true, true, true, true, true, true, true, true, true, true, true, true, true, true, true, true, true, true, true, true, true, true, true, true, true, true, true, true, true, true, true, true, true, true, true, true, true, true, true, true, true, true, true, true, true, true, true, true, true, true, true, true, true, true, true, true, true, true, true, true, true, true, true, true, true, true, true, true, true, true, true, true, true, true, true, true, true, true, true, true, true, true, true, true, true, true, true, true, true, true, true, true, true, true, true, true, true, true, true, true, true, true, true, true, true, true, true, true, true, true, true, true, true, true, true, true, true, true, true, true, true], [true, true, true, true, true, true, true, true, true, true, true, true, true, true, true, true, true, true, true, true, true, true, true, true, true, true, true, true, true, true, true, true, true, true, true, true, true, true, true, true, true, true, true, true, true, true, true, true, true, true, true, true, true, true, true, true, true, true, true, true, true, true, true, true, true, true, true, true, true, true, true, true, true, true, true, true, true, true, true, true, true, true, true, true, true, true, true, true, true, true, true, true, true, true, true, true, true, true, true, true, true, true, true, true, true, true, true, true, true, true, true, true, true, true, true, true, true, true, true, true, true, true, true, true, true, true, true, true, true, true, true, true, true, true, true, true, true, true, true, true, true, true, true, true, true, true, true, true, true, true, true, true, true, true, true, true, true, true, true, true, true, true, true, true, true, true, true, true, true, true, true, true, true, true, true, true, true, true, true, true, true, true, true, true, true, true, true, true], [true, true, true, true, true, true, true, true, true, true, true, true, true, true, true, true, true, true, true, true, true, true, true, true, true, true, true, true, true, true, true, true, true, true, true, true, true, true, true, true, true, true, true, true, true, true, true, true, true, true, true, true, true, true, true, true, true, true, true, true, true, true, true, true, true, true, true, true, true, true, true, true, true, true, true, true, true, true, true, true, true, true, true, true, true, true, true, true, true, true, true, true, true, true, true, true, true, true, true, true, true, true, true, true, true, true, true, true, true, true, true, true, true, true, true, true, true, true, true, true, true, true, true, true, true, true, true, true, true, true, true, true, true, true, true, true, true, true, true, true, true, true, true, true, true, true, true, true, true, true, true, true, true, true, true, true, true, true, true, true, true, true, true, true, true, true, true, true, true, true, true, true, true, true, true, true, true, true, true, true, true, true, true, true, true, true, true, true], [true, true, true, true, true, true, true, true, true, true, true, true, true, true, true, true, true, true, true, true, true, true, true, true, true, true, true, true, true, true, true, true, true, true, true, true, true, true, true, true, true, true, true, true, true, true, true, true, true, true, true, true, true, true, true, true, true, true, true, true, true, true, true, true, true, true, true, true, true, true, true, true, true, true, true, true, true, true, true, true, true, true, true, true, true, true, true, true, true, true, true, true, true, true, true, true, true, true, true, true, true, true, true, true, true, true, true, true, true, true, true, true, true, true, true, true, true, true, true, true, true, true, true, true, true, true, true, true, true, true, true, true, true, true, true, true, true, true, true, true, true, true, true, true, true, true, true, true, true, true, true, true, true, true, true, true, true, true, true, true, true, true, true, true, true, true, true, true, true, true, true, true, true, true, true, true, true, true, true, true, true, true, true, true, true, true, true, true], [true, true, true, true, true, true, true, true, true, true, true, true, true, true, true, true, true, true, true, true, true, true, true, true, true, true, true, true, true, true, true, true, true, true, true, true, true, true, true, true, true, true, true, true, true, true, true, true, true, true, true, true, true, true, true, true, true, true, true, true, true, true, true, true, true, true, true, true, true, true, true, true, true, true, true, true, true, true, true, true, true, true, true, true, true, true, true, true, true, true, true, true, true, true, true, true, true, true, true, true, true, true, true, true, true, true, true, true, true, true, true, true, true, true, true, true, true, true, true, true, true, true, true, true, true, true, true, true, true, true, true, true, true, true, true, true, true, true, true, true, true, true, true, true, true, true, true, true, true, true, true, true, true, true, true, true, true, true, true, true, true, true, true, true, true, true, true, true, true, tr…
            tensor<bool, [4]> var_3871_end_mask_0 = const()[name = tensor<string, []>("op_3871_end_mask_0"), val = tensor<bool, [4]>([true, true, true, true])];
            tensor<fp16, [1, 8, 375, 188]> var_3871_cast_fp16 = slice_by_index(begin = var_3871_begin_0, end = var_3871_end_0, end_mask = var_3871_end_mask_0, x = x_495_cast_fp16)[name = tensor<string, []>("op_3871_cast_fp16")];
            tensor<int32, [4]> var_3872 = const()[name = tensor<string, []>("op_3872"), val = tensor<int32, [4]>([1, 8, 188, 375])];
            tensor<fp16, [1, 8, 188, 375]> matrix_bd_89_cast_fp16 = reshape(shape = var_3872, x = var_3871_cast_fp16)[name = tensor<string, []>("matrix_bd_89_cast_fp16")];
            tensor<bool, []> matrix_ac_45_transpose_x_0 = const()[name = tensor<string, []>("matrix_ac_45_transpose_x_0"), val = tensor<bool, []>(false)];
            tensor<bool, []> matrix_ac_45_transpose_y_0 = const()[name = tensor<string, []>("matrix_ac_45_transpose_y_0"), val = tensor<bool, []>(false)];
            tensor<int32, [4]> transpose_140_perm_0 = const()[name = tensor<string, []>("transpose_140_perm_0"), val = tensor<int32, [4]>([0, 2, -3, -1])];
            tensor<int32, [4]> transpose_141_perm_0 = const()[name = tensor<string, []>("transpose_141_perm_0"), val = tensor<int32, [4]>([0, 2, -1, -3])];
            tensor<fp16, [1, 8, 128, 188]> transpose_141 = transpose(perm = transpose_141_perm_0, x = k_89_cast_fp16)[name = tensor<string, []>("transpose_156")];
            tensor<fp16, [1, 8, 188, 128]> transpose_140 = transpose(perm = transpose_140_perm_0, x = var_3855_cast_fp16)[name = tensor<string, []>("transpose_157")];
            tensor<fp16, [1, 8, 188, 188]> matrix_ac_45_cast_fp16 = matmul(transpose_x = matrix_ac_45_transpose_x_0, transpose_y = matrix_ac_45_transpose_y_0, x = transpose_140, y = transpose_141)[name = tensor<string, []>("matrix_ac_45_cast_fp16")];
            tensor<int32, [4]> matrix_bd_91_begin_0 = const()[name = tensor<string, []>("matrix_bd_91_begin_0"), val = tensor<int32, [4]>([0, 0, 0, 0])];
            tensor<int32, [4]> matrix_bd_91_end_0 = const()[name = tensor<string, []>("matrix_bd_91_end_0"), val = tensor<int32, [4]>([1, 8, 188, 188])];
            tensor<bool, [4]> matrix_bd_91_end_mask_0 = const()[name = tensor<string, []>("matrix_bd_91_end_mask_0"), val = tensor<bool, [4]>([true, true, true, false])];
            tensor<fp16, [1, 8, 188, 188]> matrix_bd_91_cast_fp16 = slice_by_index(begin = matrix_bd_91_begin_0, end = matrix_bd_91_end_0, end_mask = matrix_bd_91_end_mask_0, x = matrix_bd_89_cast_fp16)[name = tensor<string, []>("matrix_bd_91_cast_fp16")];
            tensor<fp16, [1, 8, 188, 188]> var_3881_cast_fp16 = add(x = matrix_ac_45_cast_fp16, y = matrix_bd_91_cast_fp16)[name = tensor<string, []>("op_3881_cast_fp16")];
            tensor<fp16, []> _inversed_scores_89_y_0_to_fp16 = const()[name = tensor<string, []>("_inversed_scores_89_y_0_to_fp16"), val = tensor<fp16, []>(0x1.6ap-4)];
            tensor<fp16, [1, 8, 188, 188]> _inversed_scores_89_cast_fp16 = mul(x = var_3881_cast_fp16, y = _inversed_scores_89_y_0_to_fp16)[name = tensor<string, []>("_inversed_scores_89_cast_fp16")];
            tensor<fp16, [1, 8, 188, 188]> scores_91_cast_fp16 = select(a = var_12_to_fp16, b = _inversed_scores_89_cast_fp16, cond = mask_3)[name = tensor<string, []>("scores_91_cast_fp16")];
            tensor<fp16, [1, 8, 188, 188]> var_3887_cast_fp16 = softmax(axis = var_30, x = scores_91_cast_fp16)[name = tensor<string, []>("op_3887_cast_fp16")];
            tensor<fp16, [1, 8, 188, 188]> input_1177_cast_fp16 = select(a = var_11_to_fp16, b = var_3887_cast_fp16, cond = mask_3)[name = tensor<string, []>("input_1177_cast_fp16")];
            tensor<bool, []> x_497_transpose_x_0 = const()[name = tensor<string, []>("x_497_transpose_x_0"), val = tensor<bool, []>(false)];
            tensor<bool, []> x_497_transpose_y_0 = const()[name = tensor<string, []>("x_497_transpose_y_0"), val = tensor<bool, []>(false)];
            tensor<fp16, [1, 8, 188, 128]> value_47_cast_fp16 = transpose(perm = value_47_perm_0, x = v_45_cast_fp16)[name = tensor<string, []>("transpose_155")];
            tensor<fp16, [1, 8, 188, 128]> x_497_cast_fp16 = matmul(transpose_x = x_497_transpose_x_0, transpose_y = x_497_transpose_y_0, x = input_1177_cast_fp16, y = value_47_cast_fp16)[name = tensor<string, []>("x_497_cast_fp16")];
            tensor<int32, [4]> var_3891_perm_0 = const()[name = tensor<string, []>("op_3891_perm_0"), val = tensor<int32, [4]>([0, 2, 1, 3])];
            tensor<int32, [3]> var_3892 = const()[name = tensor<string, []>("op_3892"), val = tensor<int32, [3]>([1, -1, 1024])];
            tensor<fp16, [1, 188, 8, 128]> var_3891_cast_fp16 = transpose(perm = var_3891_perm_0, x = x_497_cast_fp16)[name = tensor<string, []>("transpose_154")];
            tensor<fp16, [1, 188, 1024]> input_1179_cast_fp16 = reshape(shape = var_3892, x = var_3891_cast_fp16)[name = tensor<string, []>("input_1179_cast_fp16")];
            tensor<fp16, [1024, 1024]> module_layers_22_self_attn_linear_out_weight_to_fp16_palettized = constexpr_lut_to_dense()[indices = tensor<uint8, [786432]>(BLOBFILE(path = tensor<string, []>("@model_path/weights/weight.bin"), offset = tensor<uint64, []>(417313408))), lut = tensor<fp16, [64]>(BLOBFILE(path = tensor<string, []>("@model_path/weights/weight.bin"), offset = tensor<uint64, []>(418099904))), name = tensor<string, []>("module_layers_22_self_attn_linear_out_weight_to_fp16_palettized"), shape = tensor<uint32, [2]>([1024, 1024])];
            tensor<fp16, [1, 188, 1024]> linear_205_cast_fp16 = linear(bias = linear_2_bias_0_to_fp16, weight = module_layers_22_self_attn_linear_out_weight_to_fp16_palettized, x = input_1179_cast_fp16)[name = tensor<string, []>("linear_205_cast_fp16")];
            tensor<fp16, [1, 188, 1024]> input_1183_cast_fp16 = add(x = input_1175_cast_fp16, y = linear_205_cast_fp16)[name = tensor<string, []>("input_1183_cast_fp16")];
            tensor<int32, [1]> x_501_axes_0 = const()[name = tensor<string, []>("x_501_axes_0"), val = tensor<int32, [1]>([-1])];
            tensor<fp16, [1024]> module_layers_22_norm_conv_weight_to_fp16 = const()[name = tensor<string, []>("module_layers_22_norm_conv_weight_to_fp16"), val = tensor<fp16, [1024]>(BLOBFILE(path = tensor<string, []>("@model_path/weights/weight.bin"), offset = tensor<uint64, []>(418100096)))];
            tensor<fp16, [1024]> module_layers_22_norm_conv_bias_to_fp16 = const()[name = tensor<string, []>("module_layers_22_norm_conv_bias_to_fp16"), val = tensor<fp16, [1024]>(BLOBFILE(path = tensor<string, []>("@model_path/weights/weight.bin"), offset = tensor<uint64, []>(418102208)))];
            tensor<fp16, [1, 188, 1024]> x_501_cast_fp16 = layer_norm(axes = x_501_axes_0, beta = module_layers_22_norm_conv_bias_to_fp16, epsilon = var_9_to_fp16, gamma = module_layers_22_norm_conv_weight_to_fp16, x = input_1183_cast_fp16)[name = tensor<string, []>("x_501_cast_fp16")];
            tensor<int32, [3]> input_1185_perm_0 = const()[name = tensor<string, []>("input_1185_perm_0"), val = tensor<int32, [3]>([0, 2, 1])];
            tensor<string, []> input_1187_pad_type_0 = const()[name = tensor<string, []>("input_1187_pad_type_0"), val = tensor<string, []>("valid")];
            tensor<int32, [1]> input_1187_strides_0 = const()[name = tensor<string, []>("input_1187_strides_0"), val = tensor<int32, [1]>([1])];
            tensor<int32, [2]> input_1187_pad_0 = const()[name = tensor<string, []>("input_1187_pad_0"), val = tensor<int32, [2]>([0, 0])];
            tensor<int32, [1]> input_1187_dilations_0 = const()[name = tensor<string, []>("input_1187_dilations_0"), val = tensor<int32, [1]>([1])];
            tensor<int32, []> input_1187_groups_0 = const()[name = tensor<string, []>("input_1187_groups_0"), val = tensor<int32, []>(1)];
            tensor<fp16, [2048, 1024, 1]> module_layers_22_conv_pointwise_conv1_weight_to_fp16_palettized = constexpr_lut_to_dense()[indices = tensor<uint8, [1572864]>(BLOBFILE(path = tensor<string, []>("@model_path/weights/weight.bin"), offset = tensor<uint64, []>(418104320))), lut = tensor<fp16, [64]>(BLOBFILE(path = tensor<string, []>("@model_path/weights/weight.bin"), offset = tensor<uint64, []>(419677248))), name = tensor<string, []>("module_layers_22_conv_pointwise_conv1_weight_to_fp16_palettized"), shape = tensor<uint32, [3]>([2048, 1024, 1])];
            tensor<fp16, [1, 1024, 188]> input_1185_cast_fp16 = transpose(perm = input_1185_perm_0, x = x_501_cast_fp16)[name = tensor<string, []>("transpose_153")];
            tensor<fp16, [1, 2048, 188]> input_1187_cast_fp16 = conv(dilations = input_1187_dilations_0, groups = input_1187_groups_0, pad = input_1187_pad_0, pad_type = input_1187_pad_type_0, strides = input_1187_strides_0, weight = module_layers_22_conv_pointwise_conv1_weight_to_fp16_palettized, x = input_1185_cast_fp16)[name = tensor<string, []>("input_1187_cast_fp16")];
            tensor<int32, []> x_503_split_num_splits_0 = const()[name = tensor<string, []>("x_503_split_num_splits_0"), val = tensor<int32, []>(2)];
            tensor<int32, []> x_503_split_axis_0 = const()[name = tensor<string, []>("x_503_split_axis_0"), val = tensor<int32, []>(1)];
            tensor<fp16, [1, 1024, 188]> x_503_split_cast_fp16_0, tensor<fp16, [1, 1024, 188]> x_503_split_cast_fp16_1 = split(axis = x_503_split_axis_0, num_splits = x_503_split_num_splits_0, x = input_1187_cast_fp16)[name = tensor<string, []>("x_503_split_cast_fp16")];
            tensor<fp16, [1, 1024, 188]> x_503_split_1_sigmoid_cast_fp16 = sigmoid(x = x_503_split_cast_fp16_1)[name = tensor<string, []>("x_503_split_1_sigmoid_cast_fp16")];
            tensor<fp16, [1, 1024, 188]> x_503_cast_fp16 = mul(x = x_503_split_cast_fp16_0, y = x_503_split_1_sigmoid_cast_fp16)[name = tensor<string, []>("x_503_cast_fp16")];
            tensor<fp16, [1, 1024, 188]> input_1189_cast_fp16 = select(a = var_11_to_fp16, b = x_503_cast_fp16, cond = var_328)[name = tensor<string, []>("input_1189_cast_fp16")];
            tensor<int32, [6]> input_1191_pad_0 = const()[name = tensor<string, []>("input_1191_pad_0"), val = tensor<int32, [6]>([0, 0, 0, 0, 4, 4])];
            tensor<string, []> input_1191_mode_0 = const()[name = tensor<string, []>("input_1191_mode_0"), val = tensor<string, []>("constant")];
            tensor<fp16, []> const_237_to_fp16 = const()[name = tensor<string, []>("const_237_to_fp16"), val = tensor<fp16, []>(0x0p+0)];
            tensor<fp16, [1, 1024, 196]> input_1191_cast_fp16 = pad(constant_val = const_237_to_fp16, mode = input_1191_mode_0, pad = input_1191_pad_0, x = input_1189_cast_fp16)[name = tensor<string, []>("input_1191_cast_fp16")];
            tensor<string, []> input_1193_pad_type_0 = const()[name = tensor<string, []>("input_1193_pad_type_0"), val = tensor<string, []>("valid")];
            tensor<int32, []> input_1193_groups_0 = const()[name = tensor<string, []>("input_1193_groups_0"), val = tensor<int32, []>(1024)];
            tensor<int32, [1]> input_1193_strides_0 = const()[name = tensor<string, []>("input_1193_strides_0"), val = tensor<int32, [1]>([1])];
            tensor<int32, [2]> input_1193_pad_0 = const()[name = tensor<string, []>("input_1193_pad_0"), val = tensor<int32, [2]>([0, 0])];
            tensor<int32, [1]> input_1193_dilations_0 = const()[name = tensor<string, []>("input_1193_dilations_0"), val = tensor<int32, [1]>([1])];
            tensor<fp16, [1024, 1, 9]> const_292_to_fp16_palettized = constexpr_lut_to_dense()[indices = tensor<uint8, [6912]>(BLOBFILE(path = tensor<string, []>("@model_path/weights/weight.bin"), offset = tensor<uint64, []>(419677440))), lut = tensor<fp16, [64]>(BLOBFILE(path = tensor<string, []>("@model_path/weights/weight.bin"), offset = tensor<uint64, []>(419684416))), name = tensor<string, []>("const_292_to_fp16_palettized"), shape = tensor<uint32, [3]>([1024, 1, 9])];
            tensor<fp16, [1024]> const_293_to_fp16 = const()[name = tensor<string, []>("const_293_to_fp16"), val = tensor<fp16, [1024]>(BLOBFILE(path = tensor<string, []>("@model_path/weights/weight.bin"), offset = tensor<uint64, []>(419684608)))];
            tensor<fp16, [1, 1024, 188]> input_1195_cast_fp16 = conv(bias = const_293_to_fp16, dilations = input_1193_dilations_0, groups = input_1193_groups_0, pad = input_1193_pad_0, pad_type = input_1193_pad_type_0, strides = input_1193_strides_0, weight = const_292_to_fp16_palettized, x = input_1191_cast_fp16)[name = tensor<string, []>("input_1195_cast_fp16")];
            tensor<fp16, [1, 1024, 188]> input_1197_cast_fp16 = silu(x = input_1195_cast_fp16)[name = tensor<string, []>("input_1197_cast_fp16")];
            tensor<string, []> x_505_pad_type_0 = const()[name = tensor<string, []>("x_505_pad_type_0"), val = tensor<string, []>("valid")];
            tensor<int32, [1]> x_505_strides_0 = const()[name = tensor<string, []>("x_505_strides_0"), val = tensor<int32, [1]>([1])];
            tensor<int32, [2]> x_505_pad_0 = const()[name = tensor<string, []>("x_505_pad_0"), val = tensor<int32, [2]>([0, 0])];
            tensor<int32, [1]> x_505_dilations_0 = const()[name = tensor<string, []>("x_505_dilations_0"), val = tensor<int32, [1]>([1])];
            tensor<int32, []> x_505_groups_0 = const()[name = tensor<string, []>("x_505_groups_0"), val = tensor<int32, []>(1)];
            tensor<fp16, [1024, 1024, 1]> module_layers_22_conv_pointwise_conv2_weight_to_fp16_palettized = constexpr_lut_to_dense()[indices = tensor<uint8, [786432]>(BLOBFILE(path = tensor<string, []>("@model_path/weights/weight.bin"), offset = tensor<uint64, []>(419686720))), lut = tensor<fp16, [64]>(BLOBFILE(path = tensor<string, []>("@model_path/weights/weight.bin"), offset = tensor<uint64, []>(420473216))), name = tensor<string, []>("module_layers_22_conv_pointwise_conv2_weight_to_fp16_palettized"), shape = tensor<uint32, [3]>([1024, 1024, 1])];
            tensor<fp16, [1, 1024, 188]> x_505_cast_fp16 = conv(dilations = x_505_dilations_0, groups = x_505_groups_0, pad = x_505_pad_0, pad_type = x_505_pad_type_0, strides = x_505_strides_0, weight = module_layers_22_conv_pointwise_conv2_weight_to_fp16_palettized, x = input_1197_cast_fp16)[name = tensor<string, []>("x_505_cast_fp16")];
            tensor<int32, [3]> input_1199_perm_0 = const()[name = tensor<string, []>("input_1199_perm_0"), val = tensor<int32, [3]>([0, 2, 1])];
            tensor<fp16, [1, 188, 1024]> input_1199_cast_fp16 = transpose(perm = input_1199_perm_0, x = x_505_cast_fp16)[name = tensor<string, []>("transpose_152")];
            tensor<fp16, [1, 188, 1024]> input_1201_cast_fp16 = add(x = input_1183_cast_fp16, y = input_1199_cast_fp16)[name = tensor<string, []>("input_1201_cast_fp16")];
            tensor<int32, [1]> input_1203_axes_0 = const()[name = tensor<string, []>("input_1203_axes_0"), val = tensor<int32, [1]>([-1])];
            tensor<fp16, [1024]> module_layers_22_norm_feed_forward2_weight_to_fp16 = const()[name = tensor<string, []>("module_layers_22_norm_feed_forward2_weight_to_fp16"), val = tensor<fp16, [1024]>(BLOBFILE(path = tensor<string, []>("@model_path/weights/weight.bin"), offset = tensor<uint64, []>(420473408)))];
            tensor<fp16, [1024]> module_layers_22_norm_feed_forward2_bias_to_fp16 = const()[name = tensor<string, []>("module_layers_22_norm_feed_forward2_bias_to_fp16"), val = tensor<fp16, [1024]>(BLOBFILE(path = tensor<string, []>("@model_path/weights/weight.bin"), offset = tensor<uint64, []>(420475520)))];
            tensor<fp16, [1, 188, 1024]> input_1203_cast_fp16 = layer_norm(axes = input_1203_axes_0, beta = module_layers_22_norm_feed_forward2_bias_to_fp16, epsilon = var_9_to_fp16, gamma = module_layers_22_norm_feed_forward2_weight_to_fp16, x = input_1201_cast_fp16)[name = tensor<string, []>("input_1203_cast_fp16")];
            tensor<fp16, [4096, 1024]> module_layers_22_feed_forward2_linear1_weight_to_fp16_palettized = constexpr_lut_to_dense()[indices = tensor<uint8, [3145728]>(BLOBFILE(path = tensor<string, []>("@model_path/weights/weight.bin"), offset = tensor<uint64, []>(420477632))), lut = tensor<fp16, [64]>(BLOBFILE(path = tensor<string, []>("@model_path/weights/weight.bin"), offset = tensor<uint64, []>(423623424))), name = tensor<string, []>("module_layers_22_feed_forward2_linear1_weight_to_fp16_palettized"), shape = tensor<uint32, [2]>([4096, 1024])];
            tensor<fp16, [1, 188, 4096]> linear_206_cast_fp16 = linear(bias = linear_1_bias_0_to_fp16, weight = module_layers_22_feed_forward2_linear1_weight_to_fp16_palettized, x = input_1203_cast_fp16)[name = tensor<string, []>("linear_206_cast_fp16")];
            tensor<fp16, [1, 188, 4096]> input_1207_cast_fp16 = silu(x = linear_206_cast_fp16)[name = tensor<string, []>("input_1207_cast_fp16")];
            tensor<fp16, [1024, 4096]> module_layers_22_feed_forward2_linear2_weight_to_fp16_palettized = constexpr_lut_to_dense()[indices = tensor<uint8, [3145728]>(BLOBFILE(path = tensor<string, []>("@model_path/weights/weight.bin"), offset = tensor<uint64, []>(423623616))), lut = tensor<fp16, [64]>(BLOBFILE(path = tensor<string, []>("@model_path/weights/weight.bin"), offset = tensor<uint64, []>(426769408))), name = tensor<string, []>("module_layers_22_feed_forward2_linear2_weight_to_fp16_palettized"), shape = tensor<uint32, [2]>([1024, 4096])];
            tensor<fp16, [1, 188, 1024]> linear_207_cast_fp16 = linear(bias = linear_2_bias_0_to_fp16, weight = module_layers_22_feed_forward2_linear2_weight_to_fp16_palettized, x = input_1207_cast_fp16)[name = tensor<string, []>("linear_207_cast_fp16")];
            tensor<fp16, []> var_3952_to_fp16 = const()[name = tensor<string, []>("op_3952_to_fp16"), val = tensor<fp16, []>(0x1p-1)];
            tensor<fp16, [1, 188, 1024]> var_3953_cast_fp16 = mul(x = linear_207_cast_fp16, y = var_3952_to_fp16)[name = tensor<string, []>("op_3953_cast_fp16")];
            tensor<fp16, [1, 188, 1024]> input_1213_cast_fp16 = add(x = input_1201_cast_fp16, y = var_3953_cast_fp16)[name = tensor<string, []>("input_1213_cast_fp16")];
            tensor<int32, [1]> input_1215_axes_0 = const()[name = tensor<string, []>("input_1215_axes_0"), val = tensor<int32, [1]>([-1])];
            tensor<fp16, [1024]> module_layers_22_norm_out_weight_to_fp16 = const()[name = tensor<string, []>("module_layers_22_norm_out_weight_to_fp16"), val = tensor<fp16, [1024]>(BLOBFILE(path = tensor<string, []>("@model_path/weights/weight.bin"), offset = tensor<uint64, []>(426769600)))];
            tensor<fp16, [1024]> module_layers_22_norm_out_bias_to_fp16 = const()[name = tensor<string, []>("module_layers_22_norm_out_bias_to_fp16"), val = tensor<fp16, [1024]>(BLOBFILE(path = tensor<string, []>("@model_path/weights/weight.bin"), offset = tensor<uint64, []>(426771712)))];
            tensor<fp16, [1, 188, 1024]> input_1215_cast_fp16 = layer_norm(axes = input_1215_axes_0, beta = module_layers_22_norm_out_bias_to_fp16, epsilon = var_9_to_fp16, gamma = module_layers_22_norm_out_weight_to_fp16, x = input_1213_cast_fp16)[name = tensor<string, []>("input_1215_cast_fp16")];
            tensor<int32, [1]> input_1217_axes_0 = const()[name = tensor<string, []>("input_1217_axes_0"), val = tensor<int32, [1]>([-1])];
            tensor<fp16, [1024]> module_layers_23_norm_feed_forward1_weight_to_fp16 = const()[name = tensor<string, []>("module_layers_23_norm_feed_forward1_weight_to_fp16"), val = tensor<fp16, [1024]>(BLOBFILE(path = tensor<string, []>("@model_path/weights/weight.bin"), offset = tensor<uint64, []>(426773824)))];
            tensor<fp16, [1024]> module_layers_23_norm_feed_forward1_bias_to_fp16 = const()[name = tensor<string, []>("module_layers_23_norm_feed_forward1_bias_to_fp16"), val = tensor<fp16, [1024]>(BLOBFILE(path = tensor<string, []>("@model_path/weights/weight.bin"), offset = tensor<uint64, []>(426775936)))];
            tensor<fp16, [1, 188, 1024]> input_1217_cast_fp16 = layer_norm(axes = input_1217_axes_0, beta = module_layers_23_norm_feed_forward1_bias_to_fp16, epsilon = var_9_to_fp16, gamma = module_layers_23_norm_feed_forward1_weight_to_fp16, x = input_1215_cast_fp16)[name = tensor<string, []>("input_1217_cast_fp16")];
            tensor<fp16, [4096, 1024]> module_layers_23_feed_forward1_linear1_weight_to_fp16_palettized = constexpr_lut_to_dense()[indices = tensor<uint8, [3145728]>(BLOBFILE(path = tensor<string, []>("@model_path/weights/weight.bin"), offset = tensor<uint64, []>(426778048))), lut = tensor<fp16, [64]>(BLOBFILE(path = tensor<string, []>("@model_path/weights/weight.bin"), offset = tensor<uint64, []>(429923840))), name = tensor<string, []>("module_layers_23_feed_forward1_linear1_weight_to_fp16_palettized"), shape = tensor<uint32, [2]>([4096, 1024])];
            tensor<fp16, [1, 188, 4096]> linear_208_cast_fp16 = linear(bias = linear_1_bias_0_to_fp16, weight = module_layers_23_feed_forward1_linear1_weight_to_fp16_palettized, x = input_1217_cast_fp16)[name = tensor<string, []>("linear_208_cast_fp16")];
            tensor<fp16, [1, 188, 4096]> input_1221_cast_fp16 = silu(x = linear_208_cast_fp16)[name = tensor<string, []>("input_1221_cast_fp16")];
            tensor<fp16, [1024, 4096]> module_layers_23_feed_forward1_linear2_weight_to_fp16_palettized = constexpr_lut_to_dense()[indices = tensor<uint8, [3145728]>(BLOBFILE(path = tensor<string, []>("@model_path/weights/weight.bin"), offset = tensor<uint64, []>(429924032))), lut = tensor<fp16, [64]>(BLOBFILE(path = tensor<string, []>("@model_path/weights/weight.bin"), offset = tensor<uint64, []>(433069824))), name = tensor<string, []>("module_layers_23_feed_forward1_linear2_weight_to_fp16_palettized"), shape = tensor<uint32, [2]>([1024, 4096])];
            tensor<fp16, [1, 188, 1024]> linear_209_cast_fp16 = linear(bias = linear_2_bias_0_to_fp16, weight = module_layers_23_feed_forward1_linear2_weight_to_fp16_palettized, x = input_1221_cast_fp16)[name = tensor<string, []>("linear_209_cast_fp16")];
            tensor<fp16, []> var_3981_to_fp16 = const()[name = tensor<string, []>("op_3981_to_fp16"), val = tensor<fp16, []>(0x1p-1)];
            tensor<fp16, [1, 188, 1024]> var_3982_cast_fp16 = mul(x = linear_209_cast_fp16, y = var_3981_to_fp16)[name = tensor<string, []>("op_3982_cast_fp16")];
            tensor<fp16, [1, 188, 1024]> input_1227_cast_fp16 = add(x = input_1215_cast_fp16, y = var_3982_cast_fp16)[name = tensor<string, []>("input_1227_cast_fp16")];
            tensor<int32, [1]> query_axes_0 = const()[name = tensor<string, []>("query_axes_0"), val = tensor<int32, [1]>([-1])];
            tensor<fp16, [1024]> module_layers_23_norm_self_att_weight_to_fp16 = const()[name = tensor<string, []>("module_layers_23_norm_self_att_weight_to_fp16"), val = tensor<fp16, [1024]>(BLOBFILE(path = tensor<string, []>("@model_path/weights/weight.bin"), offset = tensor<uint64, []>(433070016)))];
            tensor<fp16, [1024]> module_layers_23_norm_self_att_bias_to_fp16 = const()[name = tensor<string, []>("module_layers_23_norm_self_att_bias_to_fp16"), val = tensor<fp16, [1024]>(BLOBFILE(path = tensor<string, []>("@model_path/weights/weight.bin"), offset = tensor<uint64, []>(433072128)))];
            tensor<fp16, [1, 188, 1024]> query_cast_fp16 = layer_norm(axes = query_axes_0, beta = module_layers_23_norm_self_att_bias_to_fp16, epsilon = var_9_to_fp16, gamma = module_layers_23_norm_self_att_weight_to_fp16, x = input_1227_cast_fp16)[name = tensor<string, []>("query_cast_fp16")];
            tensor<fp16, [1024, 1024]> module_layers_23_self_attn_linear_q_weight_to_fp16_palettized = constexpr_lut_to_dense()[indices = tensor<uint8, [786432]>(BLOBFILE(path = tensor<string, []>("@model_path/weights/weight.bin"), offset = tensor<uint64, []>(433074240))), lut = tensor<fp16, [64]>(BLOBFILE(path = tensor<string, []>("@model_path/weights/weight.bin"), offset = tensor<uint64, []>(433860736))), name = tensor<string, []>("module_layers_23_self_attn_linear_q_weight_to_fp16_palettized"), shape = tensor<uint32, [2]>([1024, 1024])];
            tensor<fp16, [1, 188, 1024]> linear_210_cast_fp16 = linear(bias = linear_2_bias_0_to_fp16, weight = module_layers_23_self_attn_linear_q_weight_to_fp16_palettized, x = query_cast_fp16)[name = tensor<string, []>("linear_210_cast_fp16")];
            tensor<int32, [4]> var_3998 = const()[name = tensor<string, []>("op_3998"), val = tensor<int32, [4]>([1, -1, 8, 128])];
            tensor<fp16, [1, 188, 8, 128]> q_139_cast_fp16 = reshape(shape = var_3998, x = linear_210_cast_fp16)[name = tensor<string, []>("q_139_cast_fp16")];
            tensor<fp16, [1024, 1024]> module_layers_23_self_attn_linear_k_weight_to_fp16_palettized = constexpr_lut_to_dense()[indices = tensor<uint8, [786432]>(BLOBFILE(path = tensor<string, []>("@model_path/weights/weight.bin"), offset = tensor<uint64, []>(433860928))), lut = tensor<fp16, [64]>(BLOBFILE(path = tensor<string, []>("@model_path/weights/weight.bin"), offset = tensor<uint64, []>(434647424))), name = tensor<string, []>("module_layers_23_self_attn_linear_k_weight_to_fp16_palettized"), shape = tensor<uint32, [2]>([1024, 1024])];
            tensor<fp16, [1, 188, 1024]> linear_211_cast_fp16 = linear(bias = linear_2_bias_0_to_fp16, weight = module_layers_23_self_attn_linear_k_weight_to_fp16_palettized, x = query_cast_fp16)[name = tensor<string, []>("linear_211_cast_fp16")];
            tensor<int32, [4]> var_4002 = const()[name = tensor<string, []>("op_4002"), val = tensor<int32, [4]>([1, -1, 8, 128])];
            tensor<fp16, [1, 188, 8, 128]> k_93_cast_fp16 = reshape(shape = var_4002, x = linear_211_cast_fp16)[name = tensor<string, []>("k_93_cast_fp16")];
            tensor<fp16, [1024, 1024]> module_layers_23_self_attn_linear_v_weight_to_fp16_palettized = constexpr_lut_to_dense()[indices = tensor<uint8, [786432]>(BLOBFILE(path = tensor<string, []>("@model_path/weights/weight.bin"), offset = tensor<uint64, []>(434647616))), lut = tensor<fp16, [64]>(BLOBFILE(path = tensor<string, []>("@model_path/weights/weight.bin"), offset = tensor<uint64, []>(435434112))), name = tensor<string, []>("module_layers_23_self_attn_linear_v_weight_to_fp16_palettized"), shape = tensor<uint32, [2]>([1024, 1024])];
            tensor<fp16, [1, 188, 1024]> linear_212_cast_fp16 = linear(bias = linear_2_bias_0_to_fp16, weight = module_layers_23_self_attn_linear_v_weight_to_fp16_palettized, x = query_cast_fp16)[name = tensor<string, []>("linear_212_cast_fp16")];
            tensor<int32, [4]> var_4006 = const()[name = tensor<string, []>("op_4006"), val = tensor<int32, [4]>([1, -1, 8, 128])];
            tensor<fp16, [1, 188, 8, 128]> v_cast_fp16 = reshape(shape = var_4006, x = linear_212_cast_fp16)[name = tensor<string, []>("v_cast_fp16")];
            tensor<int32, [4]> value_perm_0 = const()[name = tensor<string, []>("value_perm_0"), val = tensor<int32, [4]>([0, 2, -3, -1])];
            tensor<fp16, [8, 128]> module_layers_23_self_attn_pos_bias_u_to_fp16 = const()[name = tensor<string, []>("module_layers_23_self_attn_pos_bias_u_to_fp16"), val = tensor<fp16, [8, 128]>(BLOBFILE(path = tensor<string, []>("@model_path/weights/weight.bin"), offset = tensor<uint64, []>(435434304)))];
            tensor<fp16, [1, 188, 8, 128]> var_4018_cast_fp16 = add(x = q_139_cast_fp16, y = module_layers_23_self_attn_pos_bias_u_to_fp16)[name = tensor<string, []>("op_4018_cast_fp16")];
            tensor<fp16, [8, 128]> module_layers_23_self_attn_pos_bias_v_to_fp16 = const()[name = tensor<string, []>("module_layers_23_self_attn_pos_bias_v_to_fp16"), val = tensor<fp16, [8, 128]>(BLOBFILE(path = tensor<string, []>("@model_path/weights/weight.bin"), offset = tensor<uint64, []>(435436416)))];
            tensor<fp16, [1, 188, 8, 128]> var_4020_cast_fp16 = add(x = q_139_cast_fp16, y = module_layers_23_self_attn_pos_bias_v_to_fp16)[name = tensor<string, []>("op_4020_cast_fp16")];
            tensor<int32, [4]> q_with_bias_v_perm_0 = const()[name = tensor<string, []>("q_with_bias_v_perm_0"), val = tensor<int32, [4]>([0, 2, -3, -1])];
            tensor<bool, []> x_513_transpose_x_0 = const()[name = tensor<string, []>("x_513_transpose_x_0"), val = tensor<bool, []>(false)];
            tensor<bool, []> x_513_transpose_y_0 = const()[name = tensor<string, []>("x_513_transpose_y_0"), val = tensor<bool, []>(false)];
            tensor<fp16, [1, 8, 128, 375]> op_4022_to_fp16_palettized = constexpr_lut_to_dense()[indices = tensor<uint8, [288000]>(BLOBFILE(path = tensor<string, []>("@model_path/weights/weight.bin"), offset = tensor<uint64, []>(435438528))), lut = tensor<fp16, [64]>(BLOBFILE(path = tensor<string, []>("@model_path/weights/weight.bin"), offset = tensor<uint64, []>(435726592))), name = tensor<string, []>("op_4022_to_fp16_palettized"), shape = tensor<uint32, [4]>([1, 8, 128, 375])];
            tensor<fp16, [1, 8, 188, 128]> q_with_bias_v_cast_fp16 = transpose(perm = q_with_bias_v_perm_0, x = var_4020_cast_fp16)[name = tensor<string, []>("transpose_151")];
            tensor<fp16, [1, 8, 188, 375]> x_513_cast_fp16 = matmul(transpose_x = x_513_transpose_x_0, transpose_y = x_513_transpose_y_0, x = q_with_bias_v_cast_fp16, y = op_4022_to_fp16_palettized)[name = tensor<string, []>("x_513_cast_fp16")];
            tensor<int32, [8]> x_515_pad_0 = const()[name = tensor<string, []>("x_515_pad_0"), val = tensor<int32, [8]>([0, 0, 0, 0, 0, 0, 1, 0])];
            tensor<string, []> x_515_mode_0 = const()[name = tensor<string, []>("x_515_mode_0"), val = tensor<string, []>("constant")];
            tensor<fp16, []> const_244_to_fp16 = const()[name = tensor<string, []>("const_244_to_fp16"), val = tensor<fp16, []>(0x0p+0)];
            tensor<fp16, [1, 8, 188, 376]> x_515_cast_fp16 = pad(constant_val = const_244_to_fp16, mode = x_515_mode_0, pad = x_515_pad_0, x = x_513_cast_fp16)[name = tensor<string, []>("x_515_cast_fp16")];
            tensor<int32, [4]> var_4030 = const()[name = tensor<string, []>("op_4030"), val = tensor<int32, [4]>([1, 8, -1, 188])];
            tensor<fp16, [1, 8, 376, 188]> x_517_cast_fp16 = reshape(shape = var_4030, x = x_515_cast_fp16)[name = tensor<string, []>("x_517_cast_fp16")];
            tensor<int32, [4]> var_4034_begin_0 = const()[name = tensor<string, []>("op_4034_begin_0"), val = tensor<int32, [4]>([0, 0, 1, 0])];
            tensor<int32, [4]> var_4034_end_0 = const()[name = tensor<string, []>("op_4034_end_0"), val = tensor<int32, [4]>([1, 8, 376, 188])];
            tensor<bool, [4]> var_4034_end_mask_0 = const()[name = tensor<string, []>("op_4034_end_mask_0"), val = tensor<bool, [4]>([true, true, true, true])];
            tensor<fp16, [1, 8, 375, 188]> var_4034_cast_fp16 = slice_by_index(begin = var_4034_begin_0, end = var_4034_end_0, end_mask = var_4034_end_mask_0, x = x_517_cast_fp16)[name = tensor<string, []>("op_4034_cast_fp16")];
            tensor<int32, [4]> var_4035 = const()[name = tensor<string, []>("op_4035"), val = tensor<int32, [4]>([1, 8, 188, 375])];
            tensor<fp16, [1, 8, 188, 375]> matrix_bd_93_cast_fp16 = reshape(shape = var_4035, x = var_4034_cast_fp16)[name = tensor<string, []>("matrix_bd_93_cast_fp16")];
            tensor<bool, []> matrix_ac_transpose_x_0 = const()[name = tensor<string, []>("matrix_ac_transpose_x_0"), val = tensor<bool, []>(false)];
            tensor<bool, []> matrix_ac_transpose_y_0 = const()[name = tensor<string, []>("matrix_ac_transpose_y_0"), val = tensor<bool, []>(false)];
            tensor<int32, [4]> transpose_142_perm_0 = const()[name = tensor<string, []>("transpose_142_perm_0"), val = tensor<int32, [4]>([0, 2, -3, -1])];
            tensor<int32, [4]> transpose_143_perm_0 = const()[name = tensor<string, []>("transpose_143_perm_0"), val = tensor<int32, [4]>([0, 2, -1, -3])];
            tensor<fp16, [1, 8, 128, 188]> transpose_143 = transpose(perm = transpose_143_perm_0, x = k_93_cast_fp16)[name = tensor<string, []>("transpose_149")];
            tensor<fp16, [1, 8, 188, 128]> transpose_142 = transpose(perm = transpose_142_perm_0, x = var_4018_cast_fp16)[name = tensor<string, []>("transpose_150")];
            tensor<fp16, [1, 8, 188, 188]> matrix_ac_cast_fp16 = matmul(transpose_x = matrix_ac_transpose_x_0, transpose_y = matrix_ac_transpose_y_0, x = transpose_142, y = transpose_143)[name = tensor<string, []>("matrix_ac_cast_fp16")];
            tensor<int32, [4]> matrix_bd_begin_0 = const()[name = tensor<string, []>("matrix_bd_begin_0"), val = tensor<int32, [4]>([0, 0, 0, 0])];
            tensor<int32, [4]> matrix_bd_end_0 = const()[name = tensor<string, []>("matrix_bd_end_0"), val = tensor<int32, [4]>([1, 8, 188, 188])];
            tensor<bool, [4]> matrix_bd_end_mask_0 = const()[name = tensor<string, []>("matrix_bd_end_mask_0"), val = tensor<bool, [4]>([true, true, true, false])];
            tensor<fp16, [1, 8, 188, 188]> matrix_bd_cast_fp16 = slice_by_index(begin = matrix_bd_begin_0, end = matrix_bd_end_0, end_mask = matrix_bd_end_mask_0, x = matrix_bd_93_cast_fp16)[name = tensor<string, []>("matrix_bd_cast_fp16")];
            tensor<fp16, [1, 8, 188, 188]> var_4044_cast_fp16 = add(x = matrix_ac_cast_fp16, y = matrix_bd_cast_fp16)[name = tensor<string, []>("op_4044_cast_fp16")];
            tensor<fp16, []> _inversed_scores_93_y_0_to_fp16 = const()[name = tensor<string, []>("_inversed_scores_93_y_0_to_fp16"), val = tensor<fp16, []>(0x1.6ap-4)];
            tensor<fp16, [1, 8, 188, 188]> _inversed_scores_93_cast_fp16 = mul(x = var_4044_cast_fp16, y = _inversed_scores_93_y_0_to_fp16)[name = tensor<string, []>("_inversed_scores_93_cast_fp16")];
            tensor<fp16, [1, 8, 188, 188]> scores_cast_fp16 = select(a = var_12_to_fp16, b = _inversed_scores_93_cast_fp16, cond = mask_3)[name = tensor<string, []>("scores_cast_fp16")];
            tensor<fp16, [1, 8, 188, 188]> var_4050_cast_fp16 = softmax(axis = var_30, x = scores_cast_fp16)[name = tensor<string, []>("op_4050_cast_fp16")];
            tensor<fp16, [1, 8, 188, 188]> input_1229_cast_fp16 = select(a = var_11_to_fp16, b = var_4050_cast_fp16, cond = mask_3)[name = tensor<string, []>("input_1229_cast_fp16")];
            tensor<bool, []> x_519_transpose_x_0 = const()[name = tensor<string, []>("x_519_transpose_x_0"), val = tensor<bool, []>(false)];
            tensor<bool, []> x_519_transpose_y_0 = const()[name = tensor<string, []>("x_519_transpose_y_0"), val = tensor<bool, []>(false)];
            tensor<fp16, [1, 8, 188, 128]> value_cast_fp16 = transpose(perm = value_perm_0, x = v_cast_fp16)[name = tensor<string, []>("transpose_148")];
            tensor<fp16, [1, 8, 188, 128]> x_519_cast_fp16 = matmul(transpose_x = x_519_transpose_x_0, transpose_y = x_519_transpose_y_0, x = input_1229_cast_fp16, y = value_cast_fp16)[name = tensor<string, []>("x_519_cast_fp16")];
            tensor<int32, [4]> var_4054_perm_0 = const()[name = tensor<string, []>("op_4054_perm_0"), val = tensor<int32, [4]>([0, 2, 1, 3])];
            tensor<int32, [3]> var_4055 = const()[name = tensor<string, []>("op_4055"), val = tensor<int32, [3]>([1, -1, 1024])];
            tensor<fp16, [1, 188, 8, 128]> var_4054_cast_fp16 = transpose(perm = var_4054_perm_0, x = x_519_cast_fp16)[name = tensor<string, []>("transpose_147")];
            tensor<fp16, [1, 188, 1024]> input_1231_cast_fp16 = reshape(shape = var_4055, x = var_4054_cast_fp16)[name = tensor<string, []>("input_1231_cast_fp16")];
            tensor<fp16, [1024, 1024]> module_layers_23_self_attn_linear_out_weight_to_fp16_palettized = constexpr_lut_to_dense()[indices = tensor<uint8, [786432]>(BLOBFILE(path = tensor<string, []>("@model_path/weights/weight.bin"), offset = tensor<uint64, []>(435726784))), lut = tensor<fp16, [64]>(BLOBFILE(path = tensor<string, []>("@model_path/weights/weight.bin"), offset = tensor<uint64, []>(436513280))), name = tensor<string, []>("module_layers_23_self_attn_linear_out_weight_to_fp16_palettized"), shape = tensor<uint32, [2]>([1024, 1024])];
            tensor<fp16, [1, 188, 1024]> linear_214_cast_fp16 = linear(bias = linear_2_bias_0_to_fp16, weight = module_layers_23_self_attn_linear_out_weight_to_fp16_palettized, x = input_1231_cast_fp16)[name = tensor<string, []>("linear_214_cast_fp16")];
            tensor<fp16, [1, 188, 1024]> input_1235_cast_fp16 = add(x = input_1227_cast_fp16, y = linear_214_cast_fp16)[name = tensor<string, []>("input_1235_cast_fp16")];
            tensor<int32, [1]> x_523_axes_0 = const()[name = tensor<string, []>("x_523_axes_0"), val = tensor<int32, [1]>([-1])];
            tensor<fp16, [1024]> module_layers_23_norm_conv_weight_to_fp16 = const()[name = tensor<string, []>("module_layers_23_norm_conv_weight_to_fp16"), val = tensor<fp16, [1024]>(BLOBFILE(path = tensor<string, []>("@model_path/weights/weight.bin"), offset = tensor<uint64, []>(436513472)))];
            tensor<fp16, [1024]> module_layers_23_norm_conv_bias_to_fp16 = const()[name = tensor<string, []>("module_layers_23_norm_conv_bias_to_fp16"), val = tensor<fp16, [1024]>(BLOBFILE(path = tensor<string, []>("@model_path/weights/weight.bin"), offset = tensor<uint64, []>(436515584)))];
            tensor<fp16, [1, 188, 1024]> x_523_cast_fp16 = layer_norm(axes = x_523_axes_0, beta = module_layers_23_norm_conv_bias_to_fp16, epsilon = var_9_to_fp16, gamma = module_layers_23_norm_conv_weight_to_fp16, x = input_1235_cast_fp16)[name = tensor<string, []>("x_523_cast_fp16")];
            tensor<int32, [3]> input_1237_perm_0 = const()[name = tensor<string, []>("input_1237_perm_0"), val = tensor<int32, [3]>([0, 2, 1])];
            tensor<string, []> input_1239_pad_type_0 = const()[name = tensor<string, []>("input_1239_pad_type_0"), val = tensor<string, []>("valid")];
            tensor<int32, [1]> input_1239_strides_0 = const()[name = tensor<string, []>("input_1239_strides_0"), val = tensor<int32, [1]>([1])];
            tensor<int32, [2]> input_1239_pad_0 = const()[name = tensor<string, []>("input_1239_pad_0"), val = tensor<int32, [2]>([0, 0])];
            tensor<int32, [1]> input_1239_dilations_0 = const()[name = tensor<string, []>("input_1239_dilations_0"), val = tensor<int32, [1]>([1])];
            tensor<int32, []> input_1239_groups_0 = const()[name = tensor<string, []>("input_1239_groups_0"), val = tensor<int32, []>(1)];
            tensor<fp16, [2048, 1024, 1]> module_layers_23_conv_pointwise_conv1_weight_to_fp16_palettized = constexpr_lut_to_dense()[indices = tensor<uint8, [1572864]>(BLOBFILE(path = tensor<string, []>("@model_path/weights/weight.bin"), offset = tensor<uint64, []>(436517696))), lut = tensor<fp16, [64]>(BLOBFILE(path = tensor<string, []>("@model_path/weights/weight.bin"), offset = tensor<uint64, []>(438090624))), name = tensor<string, []>("module_layers_23_conv_pointwise_conv1_weight_to_fp16_palettized"), shape = tensor<uint32, [3]>([2048, 1024, 1])];
            tensor<fp16, [1, 1024, 188]> input_1237_cast_fp16 = transpose(perm = input_1237_perm_0, x = x_523_cast_fp16)[name = tensor<string, []>("transpose_146")];
            tensor<fp16, [1, 2048, 188]> input_1239_cast_fp16 = conv(dilations = input_1239_dilations_0, groups = input_1239_groups_0, pad = input_1239_pad_0, pad_type = input_1239_pad_type_0, strides = input_1239_strides_0, weight = module_layers_23_conv_pointwise_conv1_weight_to_fp16_palettized, x = input_1237_cast_fp16)[name = tensor<string, []>("input_1239_cast_fp16")];
            tensor<int32, []> x_525_split_num_splits_0 = const()[name = tensor<string, []>("x_525_split_num_splits_0"), val = tensor<int32, []>(2)];
            tensor<int32, []> x_525_split_axis_0 = const()[name = tensor<string, []>("x_525_split_axis_0"), val = tensor<int32, []>(1)];
            tensor<fp16, [1, 1024, 188]> x_525_split_cast_fp16_0, tensor<fp16, [1, 1024, 188]> x_525_split_cast_fp16_1 = split(axis = x_525_split_axis_0, num_splits = x_525_split_num_splits_0, x = input_1239_cast_fp16)[name = tensor<string, []>("x_525_split_cast_fp16")];
            tensor<fp16, [1, 1024, 188]> x_525_split_1_sigmoid_cast_fp16 = sigmoid(x = x_525_split_cast_fp16_1)[name = tensor<string, []>("x_525_split_1_sigmoid_cast_fp16")];
            tensor<fp16, [1, 1024, 188]> x_525_cast_fp16 = mul(x = x_525_split_cast_fp16_0, y = x_525_split_1_sigmoid_cast_fp16)[name = tensor<string, []>("x_525_cast_fp16")];
            tensor<fp16, [1, 1024, 188]> input_1241_cast_fp16 = select(a = var_11_to_fp16, b = x_525_cast_fp16, cond = var_328)[name = tensor<string, []>("input_1241_cast_fp16")];
            tensor<int32, [6]> input_1243_pad_0 = const()[name = tensor<string, []>("input_1243_pad_0"), val = tensor<int32, [6]>([0, 0, 0, 0, 4, 4])];
            tensor<string, []> input_1243_mode_0 = const()[name = tensor<string, []>("input_1243_mode_0"), val = tensor<string, []>("constant")];
            tensor<fp16, []> const_247_to_fp16 = const()[name = tensor<string, []>("const_247_to_fp16"), val = tensor<fp16, []>(0x0p+0)];
            tensor<fp16, [1, 1024, 196]> input_1243_cast_fp16 = pad(constant_val = const_247_to_fp16, mode = input_1243_mode_0, pad = input_1243_pad_0, x = input_1241_cast_fp16)[name = tensor<string, []>("input_1243_cast_fp16")];
            tensor<string, []> input_1245_pad_type_0 = const()[name = tensor<string, []>("input_1245_pad_type_0"), val = tensor<string, []>("valid")];
            tensor<int32, []> input_1245_groups_0 = const()[name = tensor<string, []>("input_1245_groups_0"), val = tensor<int32, []>(1024)];
            tensor<int32, [1]> input_1245_strides_0 = const()[name = tensor<string, []>("input_1245_strides_0"), val = tensor<int32, [1]>([1])];
            tensor<int32, [2]> input_1245_pad_0 = const()[name = tensor<string, []>("input_1245_pad_0"), val = tensor<int32, [2]>([0, 0])];
            tensor<int32, [1]> input_1245_dilations_0 = const()[name = tensor<string, []>("input_1245_dilations_0"), val = tensor<int32, [1]>([1])];
            tensor<fp16, [1024, 1, 9]> const_294_to_fp16_palettized = constexpr_lut_to_dense()[indices = tensor<uint8, [6912]>(BLOBFILE(path = tensor<string, []>("@model_path/weights/weight.bin"), offset = tensor<uint64, []>(438090816))), lut = tensor<fp16, [64]>(BLOBFILE(path = tensor<string, []>("@model_path/weights/weight.bin"), offset = tensor<uint64, []>(438097792))), name = tensor<string, []>("const_294_to_fp16_palettized"), shape = tensor<uint32, [3]>([1024, 1, 9])];
            tensor<fp16, [1024]> const_295_to_fp16 = const()[name = tensor<string, []>("const_295_to_fp16"), val = tensor<fp16, [1024]>(BLOBFILE(path = tensor<string, []>("@model_path/weights/weight.bin"), offset = tensor<uint64, []>(438097984)))];
            tensor<fp16, [1, 1024, 188]> input_1247_cast_fp16 = conv(bias = const_295_to_fp16, dilations = input_1245_dilations_0, groups = input_1245_groups_0, pad = input_1245_pad_0, pad_type = input_1245_pad_type_0, strides = input_1245_strides_0, weight = const_294_to_fp16_palettized, x = input_1243_cast_fp16)[name = tensor<string, []>("input_1247_cast_fp16")];
            tensor<fp16, [1, 1024, 188]> input_1249_cast_fp16 = silu(x = input_1247_cast_fp16)[name = tensor<string, []>("input_1249_cast_fp16")];
            tensor<string, []> x_527_pad_type_0 = const()[name = tensor<string, []>("x_527_pad_type_0"), val = tensor<string, []>("valid")];
            tensor<int32, [1]> x_527_strides_0 = const()[name = tensor<string, []>("x_527_strides_0"), val = tensor<int32, [1]>([1])];
            tensor<int32, [2]> x_527_pad_0 = const()[name = tensor<string, []>("x_527_pad_0"), val = tensor<int32, [2]>([0, 0])];
            tensor<int32, [1]> x_527_dilations_0 = const()[name = tensor<string, []>("x_527_dilations_0"), val = tensor<int32, [1]>([1])];
            tensor<int32, []> x_527_groups_0 = const()[name = tensor<string, []>("x_527_groups_0"), val = tensor<int32, []>(1)];
            tensor<fp16, [1024, 1024, 1]> module_layers_23_conv_pointwise_conv2_weight_to_fp16_palettized = constexpr_lut_to_dense()[indices = tensor<uint8, [786432]>(BLOBFILE(path = tensor<string, []>("@model_path/weights/weight.bin"), offset = tensor<uint64, []>(438100096))), lut = tensor<fp16, [64]>(BLOBFILE(path = tensor<string, []>("@model_path/weights/weight.bin"), offset = tensor<uint64, []>(438886592))), name = tensor<string, []>("module_layers_23_conv_pointwise_conv2_weight_to_fp16_palettized"), shape = tensor<uint32, [3]>([1024, 1024, 1])];
            tensor<fp16, [1, 1024, 188]> x_527_cast_fp16 = conv(dilations = x_527_dilations_0, groups = x_527_groups_0, pad = x_527_pad_0, pad_type = x_527_pad_type_0, strides = x_527_strides_0, weight = module_layers_23_conv_pointwise_conv2_weight_to_fp16_palettized, x = input_1249_cast_fp16)[name = tensor<string, []>("x_527_cast_fp16")];
            tensor<int32, [3]> input_1251_perm_0 = const()[name = tensor<string, []>("input_1251_perm_0"), val = tensor<int32, [3]>([0, 2, 1])];
            tensor<fp16, [1, 188, 1024]> input_1251_cast_fp16 = transpose(perm = input_1251_perm_0, x = x_527_cast_fp16)[name = tensor<string, []>("transpose_145")];
            tensor<fp16, [1, 188, 1024]> input_1253_cast_fp16 = add(x = input_1235_cast_fp16, y = input_1251_cast_fp16)[name = tensor<string, []>("input_1253_cast_fp16")];
            tensor<int32, [1]> input_1255_axes_0 = const()[name = tensor<string, []>("input_1255_axes_0"), val = tensor<int32, [1]>([-1])];
            tensor<fp16, [1024]> module_layers_23_norm_feed_forward2_weight_to_fp16 = const()[name = tensor<string, []>("module_layers_23_norm_feed_forward2_weight_to_fp16"), val = tensor<fp16, [1024]>(BLOBFILE(path = tensor<string, []>("@model_path/weights/weight.bin"), offset = tensor<uint64, []>(438886784)))];
            tensor<fp16, [1024]> module_layers_23_norm_feed_forward2_bias_to_fp16 = const()[name = tensor<string, []>("module_layers_23_norm_feed_forward2_bias_to_fp16"), val = tensor<fp16, [1024]>(BLOBFILE(path = tensor<string, []>("@model_path/weights/weight.bin"), offset = tensor<uint64, []>(438888896)))];
            tensor<fp16, [1, 188, 1024]> input_1255_cast_fp16 = layer_norm(axes = input_1255_axes_0, beta = module_layers_23_norm_feed_forward2_bias_to_fp16, epsilon = var_9_to_fp16, gamma = module_layers_23_norm_feed_forward2_weight_to_fp16, x = input_1253_cast_fp16)[name = tensor<string, []>("input_1255_cast_fp16")];
            tensor<fp16, [4096, 1024]> module_layers_23_feed_forward2_linear1_weight_to_fp16_palettized = constexpr_lut_to_dense()[indices = tensor<uint8, [3145728]>(BLOBFILE(path = tensor<string, []>("@model_path/weights/weight.bin"), offset = tensor<uint64, []>(438891008))), lut = tensor<fp16, [64]>(BLOBFILE(path = tensor<string, []>("@model_path/weights/weight.bin"), offset = tensor<uint64, []>(442036800))), name = tensor<string, []>("module_layers_23_feed_forward2_linear1_weight_to_fp16_palettized"), shape = tensor<uint32, [2]>([4096, 1024])];
            tensor<fp16, [1, 188, 4096]> linear_215_cast_fp16 = linear(bias = linear_1_bias_0_to_fp16, weight = module_layers_23_feed_forward2_linear1_weight_to_fp16_palettized, x = input_1255_cast_fp16)[name = tensor<string, []>("linear_215_cast_fp16")];
            tensor<fp16, [1, 188, 4096]> input_1259_cast_fp16 = silu(x = linear_215_cast_fp16)[name = tensor<string, []>("input_1259_cast_fp16")];
            tensor<fp16, [1024, 4096]> module_layers_23_feed_forward2_linear2_weight_to_fp16_palettized = constexpr_lut_to_dense()[indices = tensor<uint8, [3145728]>(BLOBFILE(path = tensor<string, []>("@model_path/weights/weight.bin"), offset = tensor<uint64, []>(442036992))), lut = tensor<fp16, [64]>(BLOBFILE(path = tensor<string, []>("@model_path/weights/weight.bin"), offset = tensor<uint64, []>(445182784))), name = tensor<string, []>("module_layers_23_feed_forward2_linear2_weight_to_fp16_palettized"), shape = tensor<uint32, [2]>([1024, 4096])];
            tensor<fp16, [1, 188, 1024]> linear_216_cast_fp16 = linear(bias = linear_2_bias_0_to_fp16, weight = module_layers_23_feed_forward2_linear2_weight_to_fp16_palettized, x = input_1259_cast_fp16)[name = tensor<string, []>("linear_216_cast_fp16")];
            tensor<fp16, []> var_4115_to_fp16 = const()[name = tensor<string, []>("op_4115_to_fp16"), val = tensor<fp16, []>(0x1p-1)];
            tensor<fp16, [1, 188, 1024]> var_4116_cast_fp16 = mul(x = linear_216_cast_fp16, y = var_4115_to_fp16)[name = tensor<string, []>("op_4116_cast_fp16")];
            tensor<fp16, [1, 188, 1024]> input_cast_fp16 = add(x = input_1253_cast_fp16, y = var_4116_cast_fp16)[name = tensor<string, []>("input_cast_fp16")];
            tensor<int32, [1]> audio_signal_axes_0 = const()[name = tensor<string, []>("audio_signal_axes_0"), val = tensor<int32, [1]>([-1])];
            tensor<fp16, [1024]> module_layers_23_norm_out_weight_to_fp16 = const()[name = tensor<string, []>("module_layers_23_norm_out_weight_to_fp16"), val = tensor<fp16, [1024]>(BLOBFILE(path = tensor<string, []>("@model_path/weights/weight.bin"), offset = tensor<uint64, []>(445182976)))];
            tensor<fp16, [1024]> module_layers_23_norm_out_bias_to_fp16 = const()[name = tensor<string, []>("module_layers_23_norm_out_bias_to_fp16"), val = tensor<fp16, [1024]>(BLOBFILE(path = tensor<string, []>("@model_path/weights/weight.bin"), offset = tensor<uint64, []>(445185088)))];
            tensor<fp16, [1, 188, 1024]> audio_signal_cast_fp16 = layer_norm(axes = audio_signal_axes_0, beta = module_layers_23_norm_out_bias_to_fp16, epsilon = var_9_to_fp16, gamma = module_layers_23_norm_out_weight_to_fp16, x = input_cast_fp16)[name = tensor<string, []>("audio_signal_cast_fp16")];
            tensor<int32, [3]> obj_1_perm_0 = const()[name = tensor<string, []>("obj_1_perm_0"), val = tensor<int32, [3]>([0, 2, 1])];
            tensor<string, []> obj_1_cast_fp16_to_fp32_dtype_0 = const()[name = tensor<string, []>("obj_1_cast_fp16_to_fp32_dtype_0"), val = tensor<string, []>("fp32")];
            tensor<fp16, [1, 1024, 188]> obj_1_cast_fp16 = transpose(perm = obj_1_perm_0, x = audio_signal_cast_fp16)[name = tensor<string, []>("transpose_144")];
            tensor<fp32, [1, 1024, 188]> encoder = cast(dtype = obj_1_cast_fp16_to_fp32_dtype_0, x = obj_1_cast_fp16)[name = tensor<string, []>("cast_0")];
        } -> (encoder, encoder_length);
}